diamond/best_model.pth (torch, 30381 bytes, 11 tensors)

bessel_weights f4 [6]
00000000: b13b a63e 549b 873e f0a5 fe3f 314a 3040
00000010: 0d15 5e40 d1e9 8340
0.32467416 0.26485693 1.989439 2.7545283 3.4700348 4.122292

0 f4 [6, 8, 1]
00000000: 22bf 8d3d 09aa ba3f 32cf 44be 1877 9f3f
00000010: 943d 54be 581c 0c3f 72dc 213d 0fda 0a3f
00000020: bc7f 243e 3507 613f be25 53bd 3e03 5f3f
00000030: 65e0 cf3c 3394 74be 45f6 d83d d969 07bf
00000040: 72bb 653f 26c7 ab3e 2bd1 25bf c6b3 f2be
00000050: a84b 973f dbca 9f3f 6451 243f 3fe8 bd3e
00000060: e2b5 9ebe 10ef a4bd 3f4e 9c3f 5451 b63e
00000070: 9b5c 4fbf ddb0 78bf ea60 8fbe 5d25 1a3e
00000080: 8dd6 26be c356 d0bd 5790 57bf 69cc 4ebe
00000090: 609c ea3d d88f cf3e f138 d9bd 9c04 67bd
000000a0: 9bd5 193c 6147 fe3d 06ce 2d3e fca0 0fbd
000000b0: a13b 983d 6e37 d9bd 1226 4ebd 0572 9fbd
0.06921221 1.4583141 -0.19219664 1.245822 -0.20726615 0.5473075 0.039516874 0.5423898
0.16064352 0.8790162 -0.051549666 0.8711432 0.025375554 -0.23884659 0.10593847 -0.52895886
0.89739144 0.33550376 -0.6477229 -0.4740278 1.1819963 1.2483782 0.6418669 0.37091252
-0.3099814 -0.0805341 1.2211379 0.35608923 -0.8100068 -0.9714487 -0.28003627 0.15053315
-0.16292782 -0.101727985 -0.8420462 -0.20195164 0.114556074 0.40539432 -0.10606564 -0.05640088
0.009389306 0.12415958 0.16973123 -0.035065636 0.07433248 -0.106062755 -0.050329275 -0.077854194

1 f4 [6, 8, 1]
00000000: c388 5ebf 7f59 a8bc 1df8 0040 290a 453f
00000010: f140 0d40 814f 913f a361 4a40 a3d2 243f
00000020: 1666 8dbf c8d4 9bbe 5f19 223f 55b0 81be
00000030: 4648 c83f 1b2e 4d3f b521 0140 5a0f 9f3f
00000040: f1df f1be 5d92 343f f96c 8bbe e5b5 28bf
00000050: 40fe b43f 6d55 c93f 6542 a1bf c3b4 d33f
00000060: 96a6 8e3f 1097 b83f b82c 803c 056f ea3f
00000070: 3fda 84bf a4d6 9a3e 198f 9e3f 3a7c 2dc0
00000080: 5a65 f8bf 2269 67bf 8f95 adbe bff3 2fc0
00000090: 09f5 6cbe 9e28 1cbf ad78 4abe 086e 1c40
000000a0: a1c1 cf3f a1e2 d8be 0f8d 9c3f 4701 d93e
000000b0: 2ae1 bb3e 4acc cb3e b859 88be 2e3d 6abf
-0.8692743 -0.020550488 2.0151436 0.7696863 2.2070887 1.1352388 3.1622093 0.64383906
-1.1046779 -0.30435777 0.63319963 -0.25329843 1.5647056 0.80148476 2.0176823 1.242656
-0.47241166 0.7053583 -0.27231577 -0.6590255 1.4140091 1.5729195 -1.2598387 1.6539539
1.1144588 1.4421101 0.015646324 1.831513 -1.0379103 0.30241883 1.238742 -2.7107072
-1.940593 -0.90394795 -0.33903167 -2.749252 -0.23140348 -0.60999477 -0.19772597 2.4442158
1.6230966 -0.42360404 1.2230548 0.42383787 0.36695224 0.39804298 -0.2663095 -0.914996

2 f4 [6, 8, 1]
00000000: 6025 a33f 1b69 80bc c858 c4bd 6e02 febe
00000010: 6d7c 4d3f afdf ad3e 5560 4e3d 48fd 02bf
00000020: 1883 8d3d 46b9 0abe 6175 80be 13d3 3abf
00000030: 2f6f 203e 9662 41bf 8fad 3dbe f7e9 b7be
00000040: f02d 293f cc54 c93e 9411 ab3f 16a6 f1bf
00000050: a1ed bb3f 35f0 0bbf 12e5 9fbe 469e c93e
00000060: af65 5d3f 6ccf 90bf 5ba2 49bd 0577 843f
00000070: 5c24 aabf abff 4f3d b943 c5be b096 8ebd
00000080: ea39 76bf cffa e7bf 7c01 7f3e 74f3 453e
00000090: 8e28 b2bf d420 d93f 71fb d53e e5ff 52bf
000000a0: f15d 093e 74ed 973f 3396 cb3e c5e6 4d3f
000000b0: baaf 653f a60e 173d 48fd 883f a034 0040
1.2745781 -0.015675118 -0.09587246 -0.4961123 0.80267984 0.3395972 0.050384838 -0.51167727
0.0690977 -0.13547239 -0.25089553 -0.72978324 0.15667413 -0.75541055 -0.18523239 -0.3592069
0.6608572 0.39322507 1.336474 -1.887881 1.4681894 -0.546634 -0.31229454 0.39378566
0.8648328 -1.13133 -0.0492271 1.0348822 -1.3292346 0.050780933 -0.3852823 -0.06962335
-0.9618212 -1.8123416 0.2490291 0.19331151 -1.3918626 1.6963143 0.41793397 -0.82421714
0.13414742 1.186934 0.3976303 0.8043025 0.8972126 0.036879204 1.0702295 2.003212

3 f4 [6, 8, 1]
00000000: f79b 39bf 7bc0 463f ef2e 80be ca0f d4bf
00000010: 03f8 893f 97e8 4e3f e362 a8bf 122e 8cbf
00000020: b61f f53e 0f92 823f 671e a0be 9a13 8fbf
00000030: 82b3 a43f 3d6d fd3e 21b8 bcbe 679c 04bf
00000040: 7d60 eb3f 1ea5 7abd b9cb 36bf 213c 8ebf
00000050: 82c9 e53f 8029 353f e7cb 9fbd 40c1 c4be
00000060: f995 e8bf 2669 da3c 1ac7 263e 8f66 b53f
00000070: dd1a 91bf c16b cb3e 899b 48bf 095e f23f
00000080: d908 1f3f 6e43 e8bf 1ca8 533f fe1c 473e
00000090: d4f6 fa3e ad66 2abf 3dd0 b83f 7b85 71bd
000000a0: 7918 34be 76e6 933f 3630 073f b469 ebbe
000000b0: 3fc9 c63d bbcb 913f a36e 293f 0274 a23e
-0.7250361 0.7763745 -0.25035807 -1.6567318 1.0778812 0.80823654 -1.3155178 -1.095156
0.47875756 1.0200824 -0.31273195 -1.1177857 1.2867281 0.49497405 -0.3685923 -0.5180115
1.8388821 -0.061192624 -0.71404606 -1.11121 1.795212 0.7076645 -0.07802563 -0.38428688
-1.8170768 0.026661467 0.16286889 1.4171923 -1.1336323 0.39730647 -0.7836233 1.8934947
0.62122875 -1.8145578 0.8267839 0.19444653 0.4901644 -0.6656292 1.4438549 -0.058965188
-0.1758746 1.1554706 0.5280794 -0.45979083 0.097063534 1.1390299 0.66184443 0.31729132

weight f4 [24, 64]
00000000: 4917 ec3c 1a8b 2bbf e9cc a5be 8f17 033e
00000010: 9465 c4bd 8312 f53d 6583 7dbe f131 9dbd
00000020: e422 62bf b422 633d ec29 933d 1abe f13d
00000030: 035e 1bbe 00bb 12be f856 16be 848b 13bc
00000040: 9453 953e afef f23d 799f d8bd 9cdd 9c3e
00000050: e316 3fbd 0c14 d73d 62ae 52bd ce76 76bd
00000060: a81c 95bf e1d0 abbd 336a a8bc 7440 4abf
00000070: aee8 c0bd 850e 5abc f2d4 f43c a930 863d
00000080: eb31 433e 1da7 943d e585 d0bd 6b5a 7b3d
00000090: f11d 1dbe e39a 55be 2176 0bbe ddf3 a1bd
000000a0: 0ea0 17be ac4c 1fbe 2fe0 bebe 4e70 1dbe
000000b0: 2389 edbd cac6 98be ea2d 5dbe 8598 a7bd
000000c0: 7d86 113d df6b 0d3f 8f66 37be ccc1 613e
000000d0: 3cbc 62bd 603e 4fbe 2761 003e 5fdd bdbd
000000e0: 90b6 a83c 59dd 443f caeb 58bd 7b1a 32bd
000000f0: 8773 9dbe 6f09 c7bd 5441 213e 2e18 2cbe
00000100: efcc b13e b94d 33c0 d58d dc3e 9965 62bf
00000110: 3893 3bbd a75f 9abe 03e0 a23f e272 f33e
00000120: 624b 243f 4962 7dbf c43e c03f c6e7 eabf
00000130: 96b0 d53e 26c4 633e 1616 7d3d 1caa a1bf
00000140: 0ead 59be 952a 48c0 8080 92c0 324f 80c0
00000150: b417 10c0 e937 99bf c923 31c0 995d 2fc0
00000160: 4a1e 173f ab2b 79bf ef5b 51be 6cc9 65bf
00000170: e9fb f8bd 97cf 61bd 93b9 823f b4a9 7cbf
00000180: b123 d5bd 0894 b73f da1e 5b3e 40d0 773f
00000190: 64ae afbf d4e4 b03e 8c5c d1bc 7f59 4cbf
000001a0: 82f1 bd3e 0ba0 00bf 59a4 adbf 33ea d5bf
000001b0: 995f d4bd 58bf a9be b787 6bbf 2899 71bf
000001c0: 12f8 1e3e c269 3b40 ced0 52c0 a159 53c0
000001d0: 6fdc 143f 52bd 0cbf 7f2a e0bf d97b 5fbf
000001e0: 5e70 7c3e c6be ebbe efa4 31bf cb49 85bf
000001f0: fa85 cd3e d7a4 a33e ad04 11bf 6288 b9bf
00000200: 658c bebf c2a8 00c0 a2fc e5bf b9ea 813f
00000210: 0e59 973f 8a88 5bbf 5d50 40c0 cbdd 0240
00000220: 0f54 2cbf 89c2 9d3e 7776 e43d 4131 ea3f
00000230: 61c3 d6bf afe6 5cbf 13eb ef3f 07ac abbf
00000240: fe42 9ebe 0997 303f e069 7fbe c027 0cbc
00000250: ce60 e4bf 1d77 4ec0 b4aa 90bf 287d 58bf
00000260: d192 04bf bd6e b9bf 4f7b 453f c18f 0fbe
00000270: c7d3 7340 bef5 35c0 70ea e5c0 6922 70bf
00000280: a505 6bbf 6b63 71bf 8d0c 06bd decb 7d3f
00000290: 5a6e edbd 9627 ce3f 5cea a73f 863a 073f
000002a0: eae3 50bf 1cb8 7ac0 8db5 ab3f 2ea4 3640
000002b0: f419 923f 06bd c4be 9e28 b73e a660 9dbe
000002c0: 9ec8 79bf f857 c73f f820 2ebf 39be aa3d
000002d0: ee45 ab3e 9c9e 61bc a316 38be 27bc b1bf
000002e0: 0fed 42be 2d1d 9540 59d8 c8be e583 e2bf
000002f0: e1ba b440 63fc 2abf 8482 1a3b e294 1ac0
00000300: 90b7 a63d 3bfd 6abc 142a 3c3e 209b 31be
00000310: de93 edbd bac2 ae3d 8728 eebc 6ed6 27bd
00000320: a064 153d eb42 da3c 991b 6dbd acbf 843c
00000330: 529c 5b3d 6415 52bd 89f3 c2bd ab2c 433d
00000340: 91b1 fc3d 5a3c 5b3d 079a 243e 5f04 de3d
00000350: 6690 233c 8fbe 4bbe fe55 803d 7736 2d3d
00000360: bc4e 02bd f3fe ca3c dcb2 03bd 29cb bfbe
00000370: a906 593d c155 d23b 10c8 3bbe baee edbd
00000380: 5377 d53c 28e9 86be dec1 babd 21ce d33d
00000390: a2bf 27bd 7301 c3bd 5426 0abb c075 593d
000003a0: 4e36 993e b445 b5bd bfda 1b3c 37e0 043e
000003b0: 05c6 97bd c1ce 123d 9ef8 04be ac16 15bc
000003c0: d496 4b3e 25ad 6fbe 2a38 eab9 266f 6cbe
000003d0: f699 903c 6e84 d6bd 7af4 0b3d 161a 63be
000003e0: de52 88bd f2e7 e7be ff62 873d 21d8 bc3d
000003f0: f456 5e3d f72a ee3d 5e9e cabd 793f 953a
0.028819697 -0.6700913 -0.32382897 0.12801956 -0.09589687 0.119664215 -0.24757154 -0.07675541
-0.8833449 0.055453017 0.0718573 0.11803837 -0.15172581 -0.14329147 -0.14681613 -0.009005431
0.29165328 0.11862122 -0.10577292 0.30637825 -0.046652686 0.105018705 -0.051435836 -0.060171895
-1.164937 -0.0838945 -0.020558452 -0.790046 -0.0941938 -0.013309126 0.029886696 0.0655225
0.19062011 0.07258437 -0.10181788 0.061365526 -0.15343453 -0.20859866 -0.13619281 -0.07907841
-0.1480715 -0.15556592 -0.37280414 -0.15374872 -0.115984224 -0.29839164 -0.21599546 -0.08183388
0.03552865 0.55242723 -0.17910217 0.22046584 -0.055355296 -0.20238638 0.1253706 -0.09270739
0.020594865 0.7690025 -0.05295924 -0.043482285 -0.30752203 -0.09718596 0.15747577 -0.16806099
0.34726664 -2.8016188 0.4307696 -0.88436276 -0.045794696 -0.30151102 1.2724613 0.47548586
0.64177525 -0.98978096 1.5019155 -1.8351982 0.41736287 0.22242793 0.06178864 -1.2630038
-0.21257421 -3.127599 -4.578186 -4.0096674 -2.2514467 -1.1970187 -2.7678092 -2.7400877
0.5903059 -0.9733226 -0.20445226 -0.8976047 -0.12157423 -0.055129614 1.0212883 -0.98696446
-0.10407198 1.434205 0.21398488 0.9680214 -1.3725095 0.34549582 -0.025556825 -0.7982406
0.37098318 -0.50244206 -1.356578 -1.6712097 -0.10369796 -0.33153796 -0.9200396 -0.9437432
0.15524319 2.92833 -3.2939944 -3.3023455 0.58148855 -0.5497638 -1.7512969 -0.8729835
0.2465224 -0.46043986 -0.69392294 -1.0413145 0.40141279 0.319617 -0.5664776 -1.4494746
-1.4886595 -2.0103002 -1.7967722 1.0149757 1.1824052 -0.8575522 -3.004905 2.0447872
-0.67315763 0.3081248 0.11155408 1.8296281 -1.6778375 -0.86289495 1.8743614 -1.3411874
-0.30910486 0.6898046 -0.24942732 -0.008554399 -1.7842042 -3.22602 -1.1302094 -0.84565973
-0.51786524 -1.448692 0.7714128 -0.14019682 3.8098009 -2.843124 -7.184868 -0.93802506
-0.9180549 -0.94292325 -0.032726813 0.991392 -0.115933135 1.6105831 1.3118396 0.52823675
-0.8159777 -3.9174871 1.341478 2.8537707 1.141417 -0.38425463 0.35773176 -0.307378
-0.9757174 1.5573721 -0.68019056 0.08337063 0.3345179 -0.013770726 -0.17977385 -1.3885545
-0.19035743 4.6598115 -0.3922756 -1.7696501 5.6478124 -0.6679136 0.0023576329 -2.415337
0.081404805 -0.014342601 0.18375427 -0.17344332 -0.11600469 0.08533235 -0.02907206 -0.04097598
0.036472917 0.026643237 -0.057887647 0.016204678 0.053615876 -0.05128993 -0.09519107 0.04765002
0.123385556 0.053524353 0.16074382 0.108406775 0.009983158 -0.19896911 0.06266402 0.04228827
-0.03181337 0.024779772 -0.032152995 -0.37459686 0.052984867 0.006418914 -0.18338037 -0.11617799
0.026057875 -0.2634976 -0.091190085 0.1034205 -0.04095424 -0.09521761 -0.0021079974 0.05309081
0.29924244 -0.088511854 0.009512602 0.12976156 -0.07410816 0.035841707 -0.12985465 -0.009099644
0.19881755 -0.23405893 -0.00044673803 -0.23089275 0.01765154 -0.10474478 0.034168698 -0.2217792
-0.06656431 -0.45294148 0.06610679 0.09220911 0.054282144 0.11629289 -0.098934874 0.0011386714

bias f4 [24]
00000000: 0902 213f 790b 10bf e6ea 523e 9e4b bf3c
00000010: 0418 2b3f 9fa6 bfbe 294c 24bd f61b cabd
00000020: a6d1 3d3f a469 2dbf da70 18bf e306 19bf
00000030: f68b 483c 61fb 9ebd 0c6e 293f 08fa 59bb
00000040: c05b 02be 1785 fbbe 0e1a e53d 5e75 1e3e
00000050: 8889 293f 174f 3d3f e7f7 39bf 53d8 293f
0.6289373 -0.56267506 0.20597419 0.023351487 0.6683352 -0.3743181 -0.040111694 -0.098686144
0.74148023 -0.6773932 -0.595472 -0.59776133 0.012240401 -0.077627905 0.66183543 -0.0033260603
-0.12730312 -0.49124977 0.1118661 0.1547446 0.6622548 0.73948807 -0.72643894 0.6634571

weight f4 [12, 24]
00000000: 1797 f63e 21e6 6f3f aee0 90be f873 48be
00000010: ce02 e43d 1ab7 7dbd 5bdb 96be 84d4 11bd
00000020: f9e4 cb3e ce3f c43d c3ec 32be efa6 c8be
00000030: 2f41 cd3d 1350 1d3e 46c6 133f fb2e 95be
00000040: ea10 ef3d bc59 b4be 6a3e d33d f2fe 10bf
00000050: fc73 ce3e 99f3 9b3e e4c0 ab3e eae8 483f
00000060: a05a 81be e2df bdbd 89ce c53d 1873 113e
00000070: d784 2a3e 5e57 ac3d 7aec a63d 005f e8bc
00000080: 7659 c73d 86c5 f0bb 2acc 37bd 2f0d b9bd
00000090: c9b8 21be cdb2 e83d 2d9d c5bd 1136 ca3e
000000a0: 32c1 d53d 3714 2d3d fffa 553d fa67 1b3d
000000b0: 6504 0f3d 6564 af3d 1a7e 373e 38b7 5d3d
000000c0: 91bb 053e 858f 673f de27 82be 3126 e63d
000000d0: a632 9a3d d685 963d 801a 17be 1633 3dbe
000000e0: 254f 12be 1fc9 b53e a2a6 eebe 3e8f e9bd
000000f0: 95a5 d73d 0904 493e 50b7 a73e 5ca3 c3bd
00000100: 9b50 143e 64a9 5ebe 1bf9 ef3d 38f7 fcbe
00000110: c247 2e3f 4776 2a3e f860 c93e 8a43 183f
00000120: 1b09 70be e74c 023f 2da2 a03d 5d02 b63d
00000130: 0966 eabb 8dc3 04be af3d 50be 3e78 3ebe
00000140: 2f90 a1bc a080 91bb d906 07be 78fb c6be
00000150: 8a00 1c3e d93b 7f3e f9a1 3abe 71ca 203f
00000160: fa0b e3bd b04c a7be 309e 713c 5566 eebe
00000170: 3199 933e a56e 973d 5b72 693e 222d a53f
00000180: ee14 823c 3154 df3f fdfe 8a3f 1d18 2fbb
00000190: 3d99 5b3d 92dd 923e e8b8 553d a0e0 6f3b
000001a0: 8b29 373f b2b7 2f3f 6b37 c3bd 634d 32be
000001b0: ddb3 8d3c ae52 993d 9cc2 0fbf 067e 99bd
000001c0: 0e22 1fbe 39ca 76bf ead9 eb3c c8b5 f63f
000001d0: acda 1e3f 4f60 87be 51e2 5b3f b9df c33e
000001e0: cb70 013f 9354 87bf 7168 1c3f 6fdc 9a3d
000001f0: 0182 553f 4ab1 3c3e afba 0b3d 8300 07be
00000200: b14b d83f b40b 5fbf 0420 52bc ef4a 28bf
00000210: b7ff 9fbc 0a8e 96be f832 c83e 490b 033e
00000220: 4bb1 f0bd b18e f1be 2517 74bd e4ae e13e
00000230: 2a3f a13e 0c9d 4d3f f9dd 80be b027 893e
00000240: b871 20bf c95f c63d 94d9 233f b25b 87bc
00000250: 73e7 e7be 492b c2be 0fc8 a7bc 6bcd 093e
00000260: c4ac 6ebe d7c0 c0be 5486 80be ebf0 a3be
00000270: b5ab a4bd e2f2 113e 7597 2cbf 6c71 d53d
00000280: c886 113e b148 8b3e 399f 253d e892 993f
00000290: d2a4 44bf 566a 74be 4c85 f63e ed46 023f
000002a0: 864f f53d 64c5 083f 9067 5dbe da15 14bd
000002b0: b8b9 863e 615f 3b3e e9da ddbd 6941 39bd
000002c0: 98bd 4bbd b6fb 6f3e 6eb5 80bf ac9f 04bf
000002d0: 0efb c8bc 0d69 833e fc55 6d3f 172b a2bd
000002e0: fd6d dfbd 81b3 f9bd 25c9 2a3e 46b5 12bf
000002f0: 3636 633e 39c2 7a3e 8dba e1be 14a6 673e
00000300: 1c2e e2bc b351 863e 7805 a03d 587f 2dbc
00000310: 59ea 7c3c 95f1 2cbf 4753 4c3e c2ed 2b3f
00000320: 55e9 003f b554 a83d 2dea a2bf 3641 57bf
00000330: d9eb b13c 5782 203d e075 023f 8f97 953f
00000340: a0ef 913e 5088 cbbe eae3 70be 3692 b6be
00000350: d6fa 96be d531 80be 4567 ffbe 677c adbd
00000360: 79a6 8e3e 16ba 573f 65e4 d6be 6752 83bb
00000370: 0801 ed3e 2a2d 8cbd aee8 48be 1016 aabe
00000380: 507d cf3e fab8 923e e260 80be 99b3 eabe
00000390: e76c b2bd 3296 573e b932 4f3f 06e2 1cbf
000003a0: fb5e 3d3d 5ac4 64be 4568 943e fdac 06bf
000003b0: a2d3 223f d618 2a3f a0dd b03d 4d01 943e
000003c0: 5b89 6d3d 77e3 19bd 2f9e f3bc fa85 2c3e
000003d0: 49ad 8a3d 8c54 d7bc e169 343d d6fc 403e
000003e0: b35c bfbd 86ec a8bc 5a04 32bd 8fa5 1a3d
000003f0: aace 193e ed77 a6bd daea c4bc df9f 8c3e
0.48162147 0.93710524 -0.28296417 -0.19575489 0.111333475 -0.061942197 -0.2946423 -0.03560306
0.3982313 0.09582482 -0.1747313 -0.3918986 0.100221984 0.15362577 0.57724416 -0.29137406
0.11673148 -0.35224712 0.10314639 -0.56639016 0.40322864 0.30459288 0.335456 0.784804
-0.25264454 -0.09271218 0.09658534 0.14204061 0.16652237 0.084151015 0.08150573 -0.028365612
0.0973386 -0.0073477654 -0.04487244 -0.09035718 -0.15793146 0.113622285 -0.096491195 0.39494374
0.1043724 0.042255607 0.05224132 0.037940957 0.0349163 0.085640706 0.17919198 0.05412981
0.13059832 0.9045337 -0.2542104 0.11237753 0.07529192 0.07349746 -0.14756203 -0.18476519
-0.14288004 0.35505006 -0.46611506 -0.114042744 0.10529629 0.19630446 0.32757044 -0.09552643
0.14483874 -0.21744305 0.11717435 -0.49407363 0.68078244 0.16646682 0.39331794 0.59478056
-0.23440973 0.50898594 0.078434326 0.088871695 -0.007153277 -0.12965222 -0.2033603 -0.18600556
-0.019722072 -0.004440382 -0.13186206 -0.3886373 0.1523458 0.24925174 -0.1822585 0.628089
-0.11086269 -0.32675695 0.0147471875 -0.46562448 0.28827813 0.07394151 0.2279753 1.2904398
0.01587912 1.7447568 1.0859066 -0.0026717253 0.053612936 0.2868467 0.052178293 0.0036602393
0.71547765 0.6863967 -0.095320545 -0.17412333 0.01729768 0.07486473 -0.56156325 -0.0749474
-0.15540335 -0.9640232 0.028790433 1.9274225 0.62052417 -0.26440665 0.85892206 0.38256624
0.50562733 -1.0572685 0.61096865 0.075615756 0.83401495 0.18427005 0.034113582 -0.13183789
1.6898099 -0.8712723 -0.012825016 -0.6573934 -0.019531114 -0.29405242 0.39101386 0.12797274
-0.11752566 -0.47179177 -0.059592385 0.44078743 0.31493503 0.8031776 -0.25169352 0.26788092
-0.6267352 0.09686238 0.6400387 -0.016523216 -0.4529377 -0.3792365 -0.020481138 0.13457267
-0.23308092 -0.37647125 -0.25102484 -0.32019743 -0.08040563 0.14252809 -0.67418605 0.10422024
0.14211571 0.27203897 0.04043505 1.1997957 -0.76813996 -0.23868689 0.48148572 0.50889474
0.119780585 0.53426194 -0.21621537 -0.03615365 0.26313567 0.18298103 -0.108327694 -0.045228396
-0.049741358 0.23435864 -1.0055368 -0.5180614 -0.024533775 0.25666085 0.92709327 -0.07918375
-0.109096505 -0.12192441 0.16678293 -0.5730785 0.22188649 0.24488153 -0.4408764 0.22621948
-0.027609877 0.26234207 0.07813543 -0.010589443 0.015436732 -0.67556125 0.19953643 0.67159665
0.50356036 0.082192816 -1.2727715 -0.8408388 0.021718906 0.0391868 0.5096111 1.1686877
0.28503132 -0.39752436 -0.23524442 -0.35658425 -0.29488248 -0.2503802 -0.49883476 -0.084709935
0.27861384 0.8426832 -0.41971126 -0.004007626 0.4628985 -0.06844552 -0.1962001 -0.33219957
0.40525293 0.2865675 -0.25073916 -0.45840147 -0.08712178 0.21053389 0.8093677 -0.61282384
0.04623316 -0.22340527 0.289858 -0.5260771 0.63604176 0.66444147 0.086360216 0.28907242
0.05799232 -0.037570443 -0.029738514 0.16847983 0.06771333 -0.026285432 0.044046286 0.1884645
-0.09343853 -0.020620596 -0.04346118 0.037755545 0.15020242 -0.08128343 -0.024037767 0.27465722

bias f4 [12]
00000000: 86e1 9abd 8f47 1bbf edb1 3abf 1749 77bf
00000010: 2100 8cbf 62d8 f43e a8d8 29bf f8f9 8a3e
00000020: 9359 e43c 0e09 ce3e d5dc 59bf fe0f 09bf
-0.075625464 -0.60656065 -0.72927743 -0.965959 -1.0937539 0.47821337 -0.66346216 0.27143836
0.027874744 0.40241283 -0.8510259 -0.5354003

weight f4 [1, 12]
00000000: f7ab 7f3e 211b 99bd c732 403e 3127 983e
00000010: 96bc 5f3f c4a4 8e3f fb88 bbbe 2f20 953e
00000020: e725 c93e f17d b83e d26d 84bd 09f4 953e
0.24967943 -0.074758776 0.1876937 0.297174 0.87397134 1.1144032 -0.36627945 0.29126117
0.3928673 0.36033586 -0.06466259 0.29287747

weight f4 [1, 64]
00000000: 6168 303d 44eb 92be b68f e53d e271 94be
00000010: 0aa9 0bbe a67a 9f3e c303 003e ddf5 bfbe
00000020: b882 0b3e 7ff9 163e cdec 6ebc 5c79 d43d
00000030: 86ac 16bd 3601 793d 595e acbd e218 813d
00000040: dd83 1fbe 0658 14be 2703 a8bd ae60 8c3c
00000050: 8c49 d93d 30ce da3d 4302 a93e e44d 8d3e
00000060: 1de5 45bd 03bf ecbd 8bb1 b03e 310e 30bd
00000070: 93c3 d2bd 572b 6e3d c01e ec3e 86c2 b53d
00000080: 52e3 253e fe7f cebe 6409 563e 3e08 4c3e
00000090: d982 11be b3ab 81be ad1b c1be 8087 073c
000000a0: 9a47 513e 1890 fb3d 4ca0 dbbd e13c 3c3e
000000b0: 93e6 943e 823c cd3c d9d7 b73d 0a31 383e
000000c0: 9282 003d b3d1 743e 69a4 00be 8338 263e
000000d0: f89a 9c3e 4731 263e a603 ab3e 3e9a a33e
000000e0: 5924 e53c 8c21 c5be 3b66 cdbd 70d8 233d
000000f0: 709c 52bf 30f4 a4bd 75d6 c53e ffe1 213e
0.043068293 -0.28695118 0.11209051 -0.28993136 -0.13638702 0.3114826 0.12501435 -0.37492266
0.13624084 0.14743613 -0.014582825 0.1037471 -0.036785625 0.06079217 -0.08416433 0.06303574
-0.15577646 -0.14486703 -0.08203726 0.017135944 0.10609731 0.106838584 0.33009538 0.27598488
-0.048314203 -0.1155987 0.34510455 -0.042982284 -0.10291209 0.0581468 0.4611721 0.08874993
0.16199997 -0.40332025 0.2090202 0.19925019 -0.1421007 -0.2532631 -0.37716427 0.008272052
0.2043747 0.12283343 -0.107239336 0.18382598 0.29082164 0.025053266 0.089767165 0.17987457
0.03137452 0.23908119 -0.12562717 0.16232495 0.30586982 0.16229735 0.3340122 0.31953615
0.027971433 -0.38502157 -0.100292645 0.040001333 -0.82269955 -0.080543876 0.3864018 0.15808867
