mp20/best_model.pth (torch, 82850 bytes, 12 tensors)

embedding_weights f4 [94, 4]
00000000: cc1a a73e 155f 06bf 4685 4abf ba8f b73d
00000010: 351b 083d cd6e b9bf 6f34 48bf 17ab f23e
00000020: 9625 dfbd 68b3 81bf ca8d a4bf f625 71bf
00000030: 1fc1 c4be 7668 56bf 4077 a2bf 7bf4 57be
00000040: 608b 0abe a54f 21bf 3253 65bf 1336 99bd
00000050: a2a1 a83e fc97 15bf e5fb 38bf db21 99bd
00000060: 6857 8d3f 45a1 19bf 1bef 14bf 44bb e83e
00000070: ca1a 9e3f 49d9 36bf 4300 91be fe5d 013f
00000080: 6418 a73f b1c0 7dbf 37b7 b1be 7db5 c03e
00000090: 6d7a 39c0 2200 8840 9583 413f 0079 cfbf
000000a0: 0363 103f 79ca ddbf 7387 5bbf 3bcc febf
000000b0: f97f 8fbe df7d 9dbf b80f b9bf 4d53 e1bf
000000c0: 7408 babe 277a 9dbf 3e10 bdbf 0831 81bf
000000d0: 83e0 bdbd a0dd 9fbf 7448 9fbf 3e9c 4fbf
000000e0: af06 973e 76b0 94bf e826 8bbf ab61 33bf
000000f0: 2240 c83f ff2d a9bf 5792 bdbe a4d5 42bf
00000100: 0b0e bf3f 35a4 a9bf 599b 263e 5587 79bf
00000110: a61c 17be fc1e 17be 4be5 633e e1df a83d
00000120: 3e4d d53f 3c00 11c0 166d 043e 0271 18c0
00000130: dcec a13e ef88 00c0 e97e 71bf eb39 1ec0
00000140: 4d6b dabd e53e b4bf ba2a a4bf 28f8 e2bf
00000150: 3e73 d4be 37a0 96bf 38ad b4bf 971f 9bbf
00000160: dc65 8fbe a36d 83bf 37cf aabf a4b4 50bf
00000170: 1814 8fbe d218 83bf 15f1 a2bf 08e0 35bf
00000180: 4e74 81be e307 8fbf fee0 a6bf dc2c 36bf
00000190: a493 6bbe e201 8abf c70f a8bf 71bf e8be
000001a0: 4aec bdbe 61bf 82bf b923 aabf d325 98be
000001b0: ac81 a3be 549d 7cbf 1f35 a9bf ae4e debe
000001c0: 7f1a e0bd 0141 94bf db9a b4bf 3001 20bf
000001d0: d617 9dbb 5d5c b3bf c9eb b9bf 9b71 6fbf
000001e0: cb35 1fbe 10c0 b0bf 6e46 a8bf a2bb 8dbf
000001f0: 52b4 df3e 38e0 bbbf 9589 9cbf e434 8fbf
00000200: 0b84 2b3f a1fe bbbf 0e89 8cbf f519 8ebf
00000210: 8986 cd3f 3443 c4bf fb85 f8be 7789 89bf
00000220: 86c1 c03f e4cf abbf aa81 2f3e 4fb7 96bf
00000230: d72f 0840 1ad6 35c0 ebd8 ce3e 3409 8bc0
00000240: d7d2 0040 7ae9 18c0 c9cc eb3e 669f 25c0
00000250: e5b1 773f ef21 ffbf 5886 50bf 580b 28c0
00000260: 3ccf 993e 1c9c e6bf 8f9e b6bf 76ed 19c0
00000270: e22a 0ebe 3c2e cebf 39f0 bfbf 6042 d8bf
00000280: 3e59 2ebe 832f 9dbf f584 aebf 799b aabf
00000290: 537c 24be c84c 94bf 8d52 95bf c4f9 96bf
000002a0: 5100 cbbe fbb2 a1bf 21ed ddbf dfd4 4cbf
000002b0: 514e 95be 82bf 9abf 874a bdbf 065a 21bf
000002c0: cd48 89be 331d a5bf ace2 c3bf 3834 33bf
000002d0: 2e38 03be 53a1 b2bf d4b5 c6bf 2a0e 61bf
000002e0: 552a 0a3f c36d cdbf be9f c0bf b0c4 97bf
000002f0: d0da 9f3e 608c d1bf a06f afbf 7a12 c6bf
00000300: d16a 433e 1489 d0bf a1a1 98bf b0cb e8bf
00000310: 1014 b63e 8d46 c2bf d218 9bbf ea45 efbf
00000320: 7078 b43e ca89 c8bf b1ec 81bf 7aa2 fabf
00000330: 6545 5b3f 0475 bbbf 22fb 05bf 3347 eabf
00000340: f49f b33f 878f 74bf 7f67 633e b292 a7bf
00000350: 9c4b e73f 09e4 d8bf 5dab aabe 18d9 e9bf
00000360: 910b 2e40 22f5 24c0 6d0d 633f 7fb6 07c0
00000370: 1ce2 d13f 44e6 08c0 46f8 debe 348e 33c0
00000380: 7a71 573f 02bf 01c0 941a 7ebf a62c 29c0
00000390: 8dab 133f 3a8a e9bf 6779 9cbf 1a90 0cc0
000003a0: bb9f 073f d9c7 0ac0 6b94 87bf 9ef6 27c0
000003b0: 5fca 123f 29e2 fbbf a932 69bf 5045 20c0
000003c0: 8665 67bc e28c f0bf f422 9ebf 9cf3 31c0
000003d0: b651 8f3e 8114 dcbf d3e8 85bf 2609 29c0
000003e0: 3359 2c3f aac7 03c0 2da3 42bf 4da9 28c0
000003f0: d58a aa3e e20f f7bf ad46 94bf 9c90 16c0
0.32637632 -0.52488834 -0.7910961 0.089629605 0.03322907 -1.4486939 -0.7820501 0.47396156
-0.10895841 -1.0132875 -1.285577 -0.9419855 -0.3842859 -0.83753145 -1.2692642 -0.21089356
-0.1352973 -0.6301215 -0.8958007 -0.07481017 0.32935816 -0.58435035 -0.7225936 -0.074771605
1.1042299 -0.600117 -0.58177346 0.45455372 1.2351925 -0.714253 -0.28320512 0.50534046
1.3054318 -0.9912215 -0.34710094 0.37638465 -2.8980973 4.250016 0.75591403 -1.6208801
0.5640108 -1.7327415 -0.85753554 -1.9906076 -0.28027323 -1.2304038 -1.4457922 -1.7603546
-0.36334574 -1.2302903 -1.4770582 -1.0093088 -0.09271338 -1.248951 -1.2443986 -0.8109778
0.29497287 -1.1616352 -1.0871248 -0.70070904 1.5644572 -1.3217162 -0.3702571 -0.7610724
1.492616 -1.3253237 0.16270198 -0.97472125 -0.14757022 -0.14757913 0.22255437 0.082458265
1.6664197 -2.2656393 0.12932238 -2.3818974 0.31626022 -2.0083578 -0.94334275 -2.472285
-0.10664997 -1.4081694 -1.2825539 -1.7731981 -0.41494173 -1.1767644 -1.4115362 -1.2119015
-0.280074 -1.0267833 -1.3344487 -0.81525636 -0.27945018 -1.024195 -1.2729822 -0.7104497
-0.25284046 -1.1174282 -1.3037412 -0.711622 -0.23005539 -1.0781825 -1.3129815 -0.45458558
-0.37094337 -1.0214654 -1.3292152 -0.29716358 -0.3193487 -0.98677564 -1.3219336 -0.43419403
-0.10942554 -1.1582338 -1.4109758 -0.6250181 -0.004794101 -1.4012562 -1.4525081 -0.93532723
-0.15547864 -1.3808613 -1.3146493 -1.1072886 0.4369226 -1.4677801 -1.2229487 -1.1188016
0.66998357 -1.4687082 -1.0979326 -1.1101671 1.6056682 -1.5333009 -0.4853972 -1.0745076
1.5059059 -1.3422818 0.17139307 -1.1774691 2.12792 -2.8411927 0.4039987 -4.3448734
2.0128686 -2.3892503 0.46054676 -2.587854 0.9675582 -1.9932231 -0.8145499 -2.6256924
0.3004092 -1.8016391 -1.4267138 -2.4051185 -0.13883546 -1.610786 -1.4995185 -1.6895256
-0.1702623 -1.2280124 -1.3634325 -1.3328696 -0.16063051 -1.1585932 -1.1665817 -1.1794972
-0.3964868 -1.2632746 -1.7337991 -0.80012316 -0.29161313 -1.2089694 -1.4788369 -0.6302799
-0.26813355 -1.2899536 -1.530355 -0.70001554 -0.128144 -1.3955482 -1.552424 -0.8791224
0.53970844 -1.6049122 -1.504875 -1.1856899 0.31221628 -1.6370964 -1.370594 -1.5474389
0.19083716 -1.6291833 -1.1924325 -1.818716 0.3556218 -1.517778 -1.211695 -1.8693211
0.35248137 -1.566705 -1.0150357 -1.9580834 0.8565276 -1.4645085 -0.52336323 -1.8302978
1.4033189 -0.95531505 0.2220745 -1.3091643 1.8069949 -1.6944591 -0.33333865 -1.8269377
2.719456 -2.5774617 0.8869236 -2.1205137 1.6397128 -2.1390543 -0.43548793 -2.8055544
0.84157526 -2.0272832 -0.99259305 -2.6433501 0.5768364 -1.8245308 -1.2224549 -2.1962953
0.52978104 -2.1684477 -1.0592169 -2.6244273 0.57340044 -1.9678394 -0.91092926 -2.5042305
-0.014123326 -1.8792994 -1.2354417 -2.7804937 0.27992028 -1.7193757 -1.0461677 -2.6411834
0.6732361 -2.0590615 -0.76030236 -2.6353333 0.33309045 -1.9301722 -1.1584069 -2.3525763

embedding_weights f4 [94, 4]
00000000: 5934 543f cc28 613f ec24 4d3c 2484 28bf
00000010: 3972 b9bf f9e3 fd3f ac60 f13f fb61 d2bf
00000020: 07d4 813f 3176 d73e 0a36 753f 3326 90bf
00000030: 1778 363f b717 583f 3fee 46bd 39f6 aabf
00000040: 0eec 5b3f 899f 603f 5484 cdbd 14ee 8abf
00000050: 6b32 46bf c690 813f bbe0 3bbe c1c4 8bbf
00000060: 65dd 5fbf 5c7f 913f d313 603e 33e1 38bf
00000070: 4d30 4dbf f8c8 8b3f 801d 9d3e 33a9 f6be
00000080: 6ea5 3b3f 9973 8d3f 288f 163f bcf7 d8be
00000090: 8fed 083f d970 37bf 45d0 fcbf 5bc2 103f
000000a0: ab36 823f d2fa a43e 5015 0040 b888 78bf
000000b0: 98eb 8fbf 110c c93e 8fc1 b63f 8558 b3bf
000000c0: b77c 84bf a315 e33e 664c 323f 2d8e bdbf
000000d0: c722 67bf b620 423f 24bf 163e 5d01 d1bf
000000e0: 07ed 33bf d9fc 4c3f a561 793d c25f d3bf
000000f0: 222b da3e 55f9 403f 5cf7 b13e 0969 d0bf
00000100: efdd b63e fcb2 463f fea3 943e 5ce2 e4bf
00000110: a61c 17be fc1e 17be 4be5 633e e1df a83d
00000120: 81e2 003f 0d2f 36be f2f9 3340 9460 67bf
00000130: 13d0 87bf 95af 823d 8a10 1140 b791 8abf
00000140: f866 82bf 39ef bf3e c19e a83f dcd4 a7bf
00000150: f6c9 89bf 3764 103f 5d3a 433f f698 c4bf
00000160: ac35 863f c9b2 213f 0057 473e 074e c0bf
00000170: 50a4 7a3f 7992 bc3e 2ce7 b13e b45f aabf
00000180: 6c4b 6b3f 5111 0c3f 9527 043f 6856 a6bf
00000190: 5666 74bf e073 373f 6694 2a3e 663f acbf
000001a0: d83f 77bf cd99 1d3f 7d26 ae3d 6871 a0bf
000001b0: 61d3 83bf ec43 193f 6638 de3d d314 a5bf
000001c0: 26fd 6f3f cbbb 0a3f b237 d83e df58 adbf
000001d0: 227e 7c3f 866f 293f 75cd 073f 7c29 c5bf
000001e0: db1d 84bf 8c02 203f af14 223f f6a2 d3bf
000001f0: 7948 32bf 03ab 303f 0b58 ad3e d1d9 e0bf
00000200: 0b13 323f 4568 143f dd7e e33e 5127 e7bf
00000210: 789f 143f a7fe 203f f6a8 f23e d37e efbf
00000220: c452 833e 1802 bb3e 5a96 143f 41a6 05c0
00000230: acf3 0a3e cff1 a2bf e108 c63f 5989 82bd
00000240: 075e 153b 2709 05bf fd89 4940 66b4 32bf
00000250: 3ece 233f 2a33 5dbe dbdf 2d40 ca38 03bf
00000260: db1e 93bf 20f8 823e 5c60 0c40 7cdf 96bf
00000270: dbc5 98bf c33c fb3e 2341 b33f ba8f bebf
00000280: 4fe7 883f d924 dc3e 9a96 283f bf25 bbbf
00000290: feb8 763f 5a16 cc3e a00f a33e ade6 a7bf
000002a0: 23c6 993f 5755 4b3f 4c9c d2bd ae88 d0bf
000002b0: 00e0 813f c99a 103f d880 da3d 32d5 b8bf
000002c0: ce27 8cbf c9e7 3e3f 2720 8b3d 9a33 bbbf
000002d0: 9cb0 8ebf 030c 253f 4002 dc3e baaf c5bf
000002e0: 620e 8c3f 82bc 253f 1a73 813f 4a64 b4bf
000002f0: 84fb 9abf 4751 f23e 5419 b43f 179c babf
00000300: 5720 83bf 06b3 283e 596a c23f c5c6 b3bf
00000310: b7a8 5e3f aaa3 c13e a589 b03f 6f16 c2bf
00000320: 0dc6 863f f4b2 5c3e 4e76 a63f 4726 cbbf
00000330: 9ae9 5d3f ffba 3f3e b176 a63f 3f17 01c0
00000340: dfdd 133f 92da 82bd dd6e 8a3f 64e7 04c0
00000350: 1974 793e cd24 e93d e75d f53d 877c bfbf
00000360: c5a2 7e3c 6372 60bf e48b 4340 8ff4 86bf
00000370: feb6 013f 0e38 debe d920 3f40 ee4e 74be
00000380: 1460 57bf 1d28 243d 7966 2440 195c 85bf
00000390: 8a06 83bf c619 db3d 1e2d 0d40 1f15 90bf
000003a0: da91 77bf 3ee4 e43d 43b1 1f40 4c92 82bf
000003b0: 33a2 2cbf 52ba 54bc 29f0 1c40 c9a6 7dbf
000003c0: 59d7 85bf 00c6 293e 269e 1640 5950 85bf
000003d0: d8ef 86bf 8e0a bd3d 92a9 0d40 6660 93bf
000003e0: 5bf8 73bf 7b12 81bd 0d23 1440 dedc 64bf
000003f0: 10e9 8dbf 2c77 7c3e b7a4 0a40 4083 b3bf
0.82892376 0.87952876 0.01252101 -0.6582663 -1.4487983 1.9835197 1.8857627 -1.6436151
1.0142831 0.4208236 0.9578558 -1.1261657 0.7127699 0.84411186 -0.048567053 -1.3356391
0.85907066 0.8774343 -0.10035005 -1.0853906 -0.7742068 1.0122306 -0.18347447 -1.091942
-0.87447196 1.1366992 0.21882562 -0.72218627 -0.80151826 1.0920706 0.3068657 -0.48175964
0.732993 1.1050903 0.5881219 -0.42376506 0.53487486 -0.71656567 -1.9751059 0.5654656
1.0172933 0.3222261 2.0013008 -0.97083616 -1.1243773 0.39267018 1.4277819 -1.4011389
-1.035056 0.44352445 0.69647825 -1.4809014 -0.9028744 0.7583116 0.14721352 -1.6328541
-0.7028355 0.80073315 0.060884137 -1.6513598 0.42611033 0.7538045 0.34759033 -1.6282054
0.35716197 0.7761686 0.29031366 -1.7881579 -0.14757022 -0.14757913 0.22255437 0.082458265
0.5034562 -0.17791386 2.8121305 -0.9038174 -1.0610374 0.06381146 2.2666345 -1.0825719
-1.0187674 0.374872 1.3173448 -1.3111835 -1.0764759 0.56402916 0.7626093 -1.535918
1.0485129 0.6316343 0.19466782 -1.5023812 0.9790697 0.368305 0.34746683 -1.3310456
0.9191196 0.5471392 0.516229 -1.2995119 -0.9546865 0.71661186 0.16658172 -1.3456848
-0.9658179 0.61562806 0.08503435 -1.2534609 -1.0298883 0.59869266 0.10850601 -1.289698
0.9374565 0.541928 0.42229992 -1.3542746 0.98629963 0.66185796 0.5304788 -1.5403285
-1.0321611 0.62503886 0.6331281 -1.6534107 -0.69641834 0.69010943 0.33856234 -1.7566472
0.6956031 0.579716 0.44432727 -1.8058873 0.5805583 0.6288857 0.47394532 -1.8710579
0.25649083 0.36525035 0.5804192 -2.0882723 0.13569516 -1.2730044 1.547146 -0.06373853
0.002279164 -0.5196709 3.1490471 -0.69806516 0.63986576 -0.21601549 2.716788 -0.5125853
-1.1493791 0.2557993 2.1933813 -1.1786952 -1.1935381 0.49069795 1.4004253 -1.4887612
1.069559 0.42996863 0.658548 -1.4620894 0.96376026 0.39860803 0.31847858 -1.3117272
1.2013592 0.79427093 -0.102837175 -1.6291711 1.0146484 0.56486183 0.10669106 -1.4440062
-1.0949647 0.74572426 0.06793242 -1.4625123 -1.1147647 0.64471453 0.42970467 -1.5444252
1.0941889 0.64740765 1.0113251 -1.4093106 -1.2108006 0.47327635 1.407023 -1.4578885
-1.0244244 0.16474542 1.5188705 -1.4045035 0.8697619 0.37820178 1.3792006 -1.5163096
1.052919 0.2155264 1.3004854 -1.5871056 0.8668457 0.18723677 1.3004972 -2.0170438
0.57760423 -0.06389345 1.0815083 -2.076623 0.24360694 0.11383972 0.11980801 -1.4959878
0.015541737 -0.8767454 3.0554132 -1.0543383 0.5066985 -0.4340214 2.9863799 -0.23858234
-0.8413098 0.040077318 2.5687544 -1.0418731 -1.023637 0.10698275 2.2058787 -1.1256446
-0.96706927 0.11176346 2.4951942 -1.0200896 -0.67434996 -0.012983875 2.4521582 -0.9908262
-1.0456344 0.16579437 2.3534026 -1.0415145 -1.0541945 0.09230529 2.2134748 -1.1513793
-0.95300835 -0.06302353 2.3146393 -0.89399517 -1.108675 0.24654835 2.1663034 -1.4024429

bessel_weights f4 [6]
00000000: 32da b73e f841 b53e 1bbb 8e3f cde6 ea3f
00000010: 81d8 1f40 1d48 4840
0.35908657 0.35401893 1.115085 1.8351685 2.4975893 3.1294014

0 f4 [6, 8, 16]
00000000: 5d64 0440 97d7 56c1 e81a 46bc ed07 4741
00000010: f94c b040 53dc 87c2 c74b 2ac0 8a56 49bf
00000020: 351d b23f e6ed 65c1 b751 3ec1 a39b b3c1
00000030: 7aec 08c0 a66b c13f fe06 f940 d3d9 08c1
00000040: 3e72 5341 2aad b340 1d0b c7c0 eb3b c7c1
00000050: aed7 38c1 edf0 c9c0 fb94 c540 6a80 fb41
00000060: fa1d 8fbf 8611 16c2 e77c ce41 cee4 3e41
00000070: 2a14 8041 f74e a541 b877 21c2 bc92 6e42
00000080: b362 3dc1 54f8 95c1 8743 cb40 e17f 57c2
00000090: ef70 d6c0 9fc7 9341 fd73 1141 12b2 9ec1
000000a0: 25f0 b1c1 45e6 0e42 b1e2 0ec2 25c0 f041
000000b0: c215 c6c0 b66f e7c0 07a5 0cc0 45c9 c3c1
000000c0: 1445 0ec1 4b34 9840 6c9b dcc1 0860 de40
000000d0: 1728 e73d 3ef4 77c1 177a 62c1 18d1 95c1
000000e0: 211f edc0 37df 3bc1 24f2 cf40 969d 3dc1
000000f0: 0018 77c0 6dee bfc0 bd80 fa40 d2a8 7f41
00000100: 6aea 2ac1 b14f e440 a6e9 1cc2 159c d3c0
00000110: 426c a13f c92c f7c1 c44e 9bc2 c9f0 dec0
00000120: b680 b1c0 797d c1c0 fe44 7f41 798f f341
00000130: 9d34 adc0 adcc bf40 61c1 a3bf d8b7 7441
00000140: c073 a440 cd17 3dc0 9307 3640 703e ccc0
00000150: b862 9cc0 4d15 ef41 fe2a 66c1 00ca 2ec0
00000160: 5ea7 e6be b22e e5c1 1a0f b2c0 43bd 42c1
00000170: cc7c c53e b036 9ec1 e3ed 6cc1 2d5e a741
00000180: 8f7f fa40 3376 f040 ce69 27c2 5842 dec1
00000190: 6b71 a1c0 9ab1 8ac0 ef56 0ac1 77c5 04c2
000001a0: 115b e8c0 04de 55c1 2027 b6c1 bed6 4341
000001b0: 647e cebe a0f7 5b41 039b b3c1 9ca7 8042
000001c0: c4ae bcc0 38b6 83c2 35fa 4741 69b8 c1c2
000001d0: eda9 b53f 8538 7341 e2cf a1c1 7eb1 3a41
000001e0: b6f9 8ac0 b7fb bc41 c479 c041 81db 0f42
000001f0: f9f2 adbe c36a 3841 772c 17c2 53f6 00c1
00000200: c865 1740 a068 65c1 dd22 d43e 8013 5341
00000210: 3265 a440 afdd 88c2 2555 30c0 a8f8 a5bf
00000220: c696 d83f ad1e 69c1 6e0b 38c1 bd1b a8c1
00000230: 1c86 96bf aa9f 1240 0929 0641 0e17 0ac1
00000240: 5a33 4241 9dc6 ab40 3166 b7c0 66a3 c5c1
00000250: 7d38 38c1 6a8c e9c0 07bf c840 2508 f741
00000260: b0b2 7bbf 9628 15c2 312e d141 0c5c 4a41
00000270: 245d 8741 90ed a341 b271 22c2 1042 6e42
00000280: 3079 34c1 e3c1 96c1 6e5d c440 5c19 58c2
00000290: c5ad ddc0 79ca 9441 198a 0041 30d6 a0c1
000002a0: 929a b7c1 df7a 0d42 7b90 0bc2 1e7a ef41
000002b0: 3a59 afc0 b10f e6c0 b432 2ec0 ae4a c5c1
000002c0: 8374 0bc1 0c73 9140 a91b dec1 c6b8 bc40
000002d0: 04c0 803e 7dd3 79c1 6366 6cc1 8111 94c1
000002e0: b6dc e3c0 85f3 2fc1 6dd4 d440 02f0 2ac1
000002f0: 6fd5 91c0 941e bdc0 e29e 0b41 a89f 8041
00000300: ee31 2fc1 e7d9 e040 ca72 1fc2 436e e6c0
00000310: 5ae5 a53e 78e6 f9c1 e276 9bc2 a37e dac0
00000320: 2313 b3c0 8474 c3c0 77af 7041 774c ea41
00000330: 352b bac0 2758 da40 e44c ecbf bc93 8141
00000340: 2285 b440 706b 67c0 4b1b 0d40 6fba c7c0
00000350: d1b0 a5c0 2817 f141 1bd3 6dc1 9b00 2ac0
00000360: 0a19 9cbf 790a e8c1 be29 a6c0 cf38 65c1
00000370: 9db7 8e3d 42b0 9ec1 f35c 5ec1 2999 a941
00000380: 4329 f940 6dfd ec40 f125 28c2 f404 dfc1
00000390: 8816 bac0 dba0 97c0 fd5a 0cc1 1efa 02c2
000003a0: 6f97 e7c0 7f8a 54c1 71ee b0c1 231b 2a41
000003b0: 2f47 51be 79b8 5841 bcbc b2c1 72d4 8042
000003c0: 5728 c0c0 e654 84c2 b745 3f41 ba9f c0c2
000003d0: 5726 d33f 69a6 6741 6c9d a2c1 91ec 3241
000003e0: b731 97c0 c039 bf41 2bf6 c041 5ee6 0b42
000003f0: 15a3 0a3f 6ea8 3a41 ddb3 17c2 8268 01c1
2.0686257 -13.427634 -0.012091376 12.439435 5.509396 -67.93032 -2.660875 -0.78647673
1.3915163 -14.370581 -11.89495 -22.450994 -2.1394334 1.5110977 7.7821035 -8.55318
13.215391 5.614888 -6.2201066 -24.904257 -11.552656 -6.31066 6.174436 31.437702
-1.1181023 -37.517113 25.810987 11.9308605 16.009846 20.663557 -40.366913 59.643295
-11.8365965 -18.746254 6.351993 -53.87488 -6.701286 18.472471 9.090817 -19.836948
-22.242258 35.724873 -35.72138 30.09382 -6.190156 -7.2323866 -2.1975725 -24.473276
-8.891865 4.7563834 -27.57589 6.9492226 0.112869434 -15.497129 -14.154807 -18.727097
-7.41005 -11.741996 6.498308 -11.850973 -3.8608398 -5.9978547 7.828215 15.978716
-10.68223 7.134728 -39.228172 -6.612803 1.2611163 -30.896868 -77.65384 -6.9668927
-5.546962 -6.0465665 15.954344 30.445055 -5.4126725 5.993735 -1.279339 15.294884
5.1391296 -2.9545777 2.8442123 -6.382622 -4.8870506 29.8854 -14.385496 -2.731079
-0.45049566 -28.6478 -5.5643435 -12.171206 0.38571775 -19.776703 -14.808078 20.920984
7.828071 7.5144286 -41.853325 -27.782394 -5.045095 -4.33418 -8.646224 -33.192837
-7.2611165 -13.366703 -22.769104 12.239927 -0.40330803 13.747955 -22.45069 64.32736
-5.8963337 -65.855896 12.498586 -96.860176 1.4192482 15.201299 -20.226505 11.668333
-4.3429823 23.622908 24.059456 35.96436 -0.33974436 11.526065 -37.793423 -8.060138
2.3655872 -14.338043 0.4143285 13.192261 5.137353 -68.432976 -2.7551968 -1.2966509
1.6921012 -14.569989 -11.50279 -21.013544 -1.1759677 2.2909951 8.385018 -8.630629
12.137537 5.367995 -5.7312245 -24.704784 -11.513791 -7.2983904 6.273319 30.878977
-0.9831953 -37.289635 26.147554 12.647472 16.920479 20.490997 -40.61103 59.564514
-11.279587 -18.844671 6.136405 -54.024765 -6.927462 18.598864 8.033715 -20.104584
-22.950474 35.36999 -34.891094 29.934628 -5.479642 -7.1894155 -2.7218447 -24.661465
-8.715945 4.545294 -27.763506 5.8975554 0.25146496 -15.614133 -14.774997 -18.508547
-7.1206923 -10.996953 6.650931 -10.683596 -4.557304 -5.9099827 8.72629 16.077957
-10.94969 7.0265994 -39.8621 -7.2009597 0.32401544 -31.237534 -77.73219 -6.8279586
-5.596086 -6.107973 15.042838 29.287336 -5.8177743 6.823261 -1.8460965 16.197136
5.6412516 -3.6159325 2.2047908 -6.241508 -5.177834 30.136307 -14.864039 -2.656287
-1.2195141 -29.005114 -5.1925955 -14.326369 0.06968615 -19.836063 -13.897693 21.199785
7.786287 7.405936 -42.037052 -27.877419 -5.8152504 -4.7383857 -8.772214 -32.744255
-7.2372355 -13.2838125 -22.116426 10.631625 -0.2043731 13.545037 -22.342155 64.41493
-6.0049243 -66.16582 11.95452 -96.311966 1.6496075 14.4781275 -20.326866 11.182755
-4.7248187 23.903198 24.1202 34.974968 0.54155093 11.666121 -37.925648 -8.088015

1 f4 [6, 8, 16]
00000000: 3644 1640 1af6 93c0 0396 5540 0ecc 3d41
00000010: 2d3f efbd e664 e040 1af1 8341 9623 89be
00000020: c689 5f3e 021a 8cc0 eacb 2040 ca53 c241
00000030: f731 5541 1c99 4a3e e79c 90be fab2 e3bd
00000040: 65ed 003f 60d8 adc0 500a aac0 b950 80be
00000050: 0687 5a41 1cd7 9f3e 5f58 bfbf 4713 d341
00000060: ec7c 973e 1e23 d83e 8e57 0b3d 539d a4bd
00000070: b38e 29bf fbb7 0441 2377 e940 f564 db3d
00000080: c821 51c1 c7d2 21c0 70f6 2841 2336 b2bf
00000090: dabf ba40 de3a 9641 34b3 e941 d3c5 35be
000000a0: efd2 3ec1 8b08 8ac0 7ea2 dfbe 303e cfbf
000000b0: df46 8dc1 3d1c be3f d10d 6341 e39b 473e
000000c0: a3a5 39c2 312f be41 7801 813d f8fe 5740
000000d0: 0d70 b93e 93ff 8141 eb9b 01bd 6acc 793e
000000e0: 7da1 263f c090 8c40 db58 80be 404c babe
000000f0: cf97 c23d 2267 7241 1df6 46c0 071b 543b
00000100: d517 dcbd 6d58 36c1 645d 81be 0d0c 6abf
00000110: b9ea a23e 2a47 55be c6ae a7be c9cf 09c0
00000120: 5028 7bbd cecb f040 3527 01bd c8ac b3c0
00000130: cd8c 0941 18cd c7c0 98d2 d7bd 9752 16c1
00000140: b9d2 2ec1 744c 4ec0 4ef3 0b3f 6ecd db3e
00000150: f17a dec0 b3cd 2f3f 0fb5 e1c1 2ef6 4bbe
00000160: f6bc 203e c76c 0641 b17f 813e b06c d1bf
00000170: 6417 1ebe 18a8 373e ae29 8a41 c344 95c0
00000180: 7c8a 0ec2 c4f1 d73f 0fd8 7d3e db6c d73f
00000190: 6188 f13d d391 11be f5c0 f640 9b6d eb41
000001a0: 3878 41be d75f 9f40 f9b7 b640 2ff9 673e
000001b0: 63d9 0ac1 3a61 903c b00b ee3d 89f7 4140
000001c0: bc60 0fbc a435 b0bf 2769 17c1 3b26 a9c1
000001d0: 5937 8342 76ed b1bd 3ebc 4341 b466 8340
000001e0: dd77 bcbf de31 883c a205 09c2 83a5 8741
000001f0: 34b4 c241 dd68 733f 2a67 03c1 ed2b 683e
00000200: fba8 2240 e7ed 88c0 cacb 5640 79b4 4941
00000210: 3de2 17bd 3130 e540 c6cd 8341 afdc bc3e
00000220: 844f 96be 6904 84c0 26bb c83f 89bb be41
00000230: ff50 5141 a437 3abf e179 743e 5bdb aa3d
00000240: 70c5 943e 0e2c a2c0 cbbf 9bc0 e84e e33d
00000250: 01a4 5541 3362 87bd c4ab 02bf fe0c ce41
00000260: 2321 3bbe 0fa6 0dbe 81f3 dcbe d540 0f3d
00000270: b7f7 fc3e d718 fc40 2c7e eb40 f76a ad3d
00000280: 0daf 4ec1 435a 03c0 1ac4 2741 a227 94bf
00000290: d1f5 a540 485a 9841 fc93 e541 381e 7a3e
000002a0: 8c46 3dc1 1b9e 94c0 666a a43e 36c7 06c0
000002b0: 64ac 8ac1 bae4 a23f abff 5841 8273 08be
000002c0: 886f 38c2 47ce b541 0edc 13bd f019 0540
000002d0: 28f4 cdbe 5e57 8341 e023 59be 3e26 32be
000002e0: c52f 353f fd6d 8c40 43a1 733e 2455 b3bd
000002f0: afda e03c b0bc 7241 600f 2bc0 1c9f e83c
00000300: 6b70 7dbe 2d4c 2fc1 18b5 203e fb8e 4bbf
00000310: 6d40 b2be 36e7 063e ade3 bc3e 653e 38c0
00000320: 676e 53bc e916 f240 f3ec 1ebe 9f72 c2c0
00000330: 4f85 0741 31d8 b9c0 7322 1fbe e69c 10c1
00000340: d20d 2cc1 ea6c 3dc0 a669 9d3e c399 513e
00000350: 19e4 e4c0 204e 743e 4f3b dfc1 6478 7c3e
00000360: 9ed7 83bd 0d67 0841 6fce 6ebd 9b9f dabf
00000370: 8bb2 89be 8f36 1cbe 8f97 8541 a6a1 7fc0
00000380: 8ba2 0dc2 0b6c c43f 5a20 803e 462e ea3f
00000390: 470a 543e d5cc a9bd 6b03 e940 74bc e641
000003a0: 3bdf 423e 86ed 9040 34a3 bc40 7eab 5ebd
000003b0: 3243 07c1 5a74 34be 16ca 383d 3d5f e93f
000003c0: 7576 00ba 53a6 5ebf 610c 13c1 69ee a6c1
000003d0: c4f7 8142 f20b fbbe c4a5 3541 7a6f 9340
000003e0: 00e5 8dbf 81f6 26bf f3c0 07c2 b0d2 8641
000003f0: 75a9 be41 c042 f93e 9311 fec0 05eb a8bd
2.3479133 -4.6237917 3.337281 11.862318 -0.11681972 7.0123167 16.492725 -0.26784962
0.218299 -4.378175 2.512446 24.290913 13.324698 0.19784969 -0.28244707 -0.111181214
0.50362235 -5.432663 -5.313759 -0.25061586 13.657965 0.31218803 -1.4948844 26.384413
0.29587495 0.42214292 0.034019046 -0.0803782 -0.66233367 8.294917 7.295793 0.107126154
-13.070747 -2.5284898 10.560165 -1.3922771 5.8359194 18.778744 29.212502 -0.17751245
-11.926497 -4.313543 -0.4367866 -1.6190853 -17.659605 1.4852368 14.190873 0.1949306
-46.411755 23.773043 0.06299108 3.374937 0.362183 16.249792 -0.031642836 0.24394384
0.6509016 4.3926697 -0.2506779 -0.363863 0.095016114 15.150179 -3.1087716 0.0032364742
-0.10746733 -11.396588 -0.25266564 -0.9142464 0.31819704 -0.20827928 -0.3275053 -2.1533072
-0.061317742 7.5248785 -0.03153153 -5.6148415 8.596875 -6.243786 -0.105382144 -9.395164
-10.926446 -3.2234163 0.5466813 0.42930168 -6.9525075 0.6867325 -28.213408 -0.19918129
0.15697083 8.401557 0.25292733 -1.6361294 -0.1543861 0.17935216 17.270351 -4.664644
-35.63524 1.6870656 0.24789451 1.6830095 0.1179359 -0.14215784 7.7110543 29.428518
-0.18893516 4.980449 5.7099576 0.2265365 -8.678073 0.017624486 0.11623323 3.0307333
-0.008751091 -1.376637 -9.463172 -21.143667 65.6081 -0.0868787 12.233458 4.106287
-1.4724079 0.016625341 -34.2555 16.955816 24.33799 0.95081884 -8.212687 0.22673006
2.5415637 -4.279041 3.3561883 12.606561 -0.037080992 7.1621327 16.475475 0.36887118
-0.2935754 -4.1255383 1.5682113 23.84157 13.082274 -0.7274115 0.23874618 0.0834262
0.29056883 -5.067878 -4.867162 0.110990345 13.35254 -0.06610527 -0.51043344 25.756344
-0.1827436 -0.13832878 -0.4315453 0.034973938 0.4940774 7.878032 7.359152 0.084676675
-12.917737 -2.0523841 10.485376 -1.1574595 5.186257 19.044083 28.697258 0.2442559
-11.829723 -4.6443 0.32112426 -2.1059089 -17.334175 1.2726052 13.562419 -0.13325313
-46.108917 22.725721 -0.036098532 2.079708 -0.4022534 16.41766 -0.21205091 -0.173974
0.70776016 4.3884263 0.23791985 -0.08756474 0.027448026 15.171066 -2.6728134 0.028396182
-0.24749915 -10.956098 0.15694082 -0.79515046 -0.34814778 0.13174137 0.36892453 -2.8788083
-0.01290474 7.5652966 -0.15520076 -6.076492 8.470046 -5.8076406 -0.15540485 -9.038305
-10.753374 -2.9597726 0.30744666 0.20468812 -7.152844 0.23857927 -27.90396 0.246553
-0.0643761 8.525159 -0.05830234 -1.7079958 -0.2689403 -0.15255187 16.699003 -3.9942412
-35.408733 1.5345472 0.25024682 1.8295372 0.20707045 -0.08291022 7.281667 28.842018
0.19030468 4.5289946 5.8949223 -0.054362766 -8.453905 -0.1762251 0.0451146 1.823219
-0.0004900464 -0.8697254 -9.190522 -20.866411 64.98392 -0.4903255 11.35297 4.607358
-1.108551 -0.65219885 -33.938427 16.852875 23.832743 0.4868374 -7.9396453 -0.082479514

2 f4 [6, 8, 16]
00000000: e95c 09c0 cecf 5041 559e aa3e 0e78 0fbe
00000010: b9e6 493e 2943 a541 ae63 49bd 8b3e bcbb
00000020: 958d d4c0 6d97 e0be 5b36 f7c0 9667 823c
00000030: 5e0c a5be 2592 963e 0d83 c6bd 2b12 1141
00000040: 2d48 6741 cae2 8d3f f587 9040 6d6d 023e
00000050: 8a21 8441 626c e43d af34 8fbf 2942 68be
00000060: e5a1 c540 3349 ddbd 5df2 7cbf 5d4b 7abd
00000070: 1521 bf40 77e9 6b3d 9152 8a41 fc9f 8041
00000080: cb30 2fbf 01f0 6740 6f24 1541 bd0e f3c0
00000090: 0cc2 f93c 7613 67c0 ffe3 23bd c22d f73d
000000a0: 909b c53d 9f84 86c0 ac7a 08bd 4bee 25bc
000000b0: ac3a 0a3c a949 253f 18ae 8cbe 933f 1041
000000c0: 94f1 8940 e3e3 0c42 36c1 a1bd 9fc8 0fbd
000000d0: 0da5 0bbe 05da 5c41 36d5 0c41 d073 353e
000000e0: adfc 3cbe 6301 3bc1 cb4d 4e41 a0ee 8d41
000000f0: f9df 4d41 782b 4b41 94ef b039 43df 84bc
00000100: d91e d7bd 4ea2 ce41 76d8 123e 2381 0941
00000110: 108a 9641 81f3 9ebd 4d36 953d 6d64 413d
00000120: 5bac 41be b6ea 1cbe 9a6b 01be a92d e0bd
00000130: 0a47 953d 9cbf 0941 d934 f5c0 f4cd 9c41
00000140: f465 5541 d7ca c540 991f 5141 fd3a 1841
00000150: 0c3a 0041 9d74 423f 9639 adbd 2997 3e3e
00000160: ead2 673d ebea 953d e045 5e41 58ff 2041
00000170: e934 6c3e 0f0c 0ebc d676 4541 8eaa 363e
00000180: 5e8f 6840 ab01 88c1 028a 9e40 e792 0fbc
00000190: ae40 3941 addc 1a41 467e bec0 d686 0641
000001a0: 4ab0 4e41 223a 69bd c79d 883d ee16 6ec0
000001b0: 1cce b33e 8464 24c0 c693 fdbc 7b13 04be
000001c0: 65e8 d53d 62d9 47c1 8308 af41 c42e 203f
000001d0: 2565 f640 c36c a8bd 3bfa 833d 098d 9d41
000001e0: 60d5 c9bd fca4 4a40 0322 253e ea05 0b41
000001f0: 0e66 03be 6bc5 3841 545e 313e 6319 9b3d
00000200: 441d 14c0 0c82 5341 1ec4 94be 63ee 023e
00000210: 6c09 d8bd de67 a541 7f0a e23d cd50 d43c
00000220: 5196 d4c0 cb78 e6be 6fbc 02c1 913a 2a3d
00000230: 7178 583e 8af4 62be b473 5cbe b97b 0e41
00000240: 6b4e 5d41 b5f5 0b3f 3761 8f40 4876 0cbe
00000250: 063f 8241 0cfc efbd 9cd3 8abf 9a87 5a3e
00000260: be2d cc40 3527 a03d 492f 74bf 3f55 5e3e
00000270: a446 be40 bd66 3c3d db00 8b41 2161 8341
00000280: 370a 9bbe bb99 7240 4f78 1241 af4a f1c0
00000290: 5140 86bd 6205 5ac0 b3c6 db3d b68a 38bd
000002a0: ba0e 0fbe c2c3 8bc0 e9b3 2d3d 49d8 bfbb
000002b0: 345f 343d 67db 423f f815 6a3e 52cb 1141
000002c0: 67b8 8040 cd48 0b42 7f7b db3d 73fc efbd
000002d0: 01b5 ac3d 6f01 5d41 26e6 0641 7aa0 9dbd
000002e0: 47c4 823e 25af 3cc1 86bd 4541 3bf4 8b41
000002f0: 3f01 5241 eb1f 4a41 f2a2 103e 1a7e 65bc
00000300: e543 2f3e 4927 c941 20d2 683d f2f6 0541
00000310: 3bba 9541 e941 413e 6e92 843d 4609 bcbd
00000320: 66a0 563e 1c86 45be dab3 913e 1807 923d
00000330: 3fef a9bd ffa4 0c41 8d2e e0c0 a9ed 9741
00000340: a00d 4c41 63e5 bc40 5e5d 5041 4ee5 1541
00000350: c64c e140 ea5e 7b3f e8ad 123e f9a2 0cbe
00000360: ec67 4ebd b1ff 373d ae64 6841 93d9 1841
00000370: d888 41bf ab28 1bbe 8a58 4141 2c7b 463e
00000380: e160 3f40 f55c 83c1 2e4c a040 57a0 773d
00000390: 9dc6 3741 226b 1341 f7e5 bdc0 834c 0d41
000003a0: 5089 4d41 6191 8cbb cbdb a33c 240b 54c0
000003b0: cdbf 84be d0b4 0ec0 e56d 0e3e 3b7c 0a3e
000003c0: 98eb cabd 91a5 3ec1 dca9 ab41 d5db b23e
000003d0: 7c67 0341 a78f 15bb 5ce7 8e3d bfa4 9541
000003e0: 7787 463e 6a73 4440 56ba a0bd 6d51 0141
000003f0: 5375 c03d 14ff 3e41 fc0f cebd f05a ab3b
-2.1462958 13.050734 0.33323923 -0.14010641 0.1971692 20.657793 -0.049167328 -0.0057447604
-6.642283 -0.4386553 -7.725385 0.015918534 -0.32235998 0.29408374 -0.09692965 9.066936
14.455121 1.1084836 4.5165963 0.12737055 16.516376 0.11153485 -1.1187953 -0.22681488
6.1760125 -0.10804977 -0.98807317 -0.06110703 5.9727883 0.057595696 17.290316 16.078117
-0.6843383 3.6240237 9.321395 -7.595549 0.030488037 -3.6105628 -0.040012356 0.120692745
0.09648812 -4.203689 -0.033320114 -0.010127614 0.00843684 0.6456552 -0.27476573 9.015521
4.3107395 35.222546 -0.0789818 -0.035103437 -0.1363718 13.803227 8.802053 0.1771996
-0.18455763 -11.687839 12.893992 17.741516 12.867181 12.6981125 0.00033747836 -0.01621974
-0.105039306 25.82925 0.14340386 8.5940275 18.817413 -0.077612884 0.07285748 0.047214914
-0.18913405 -0.1532391 -0.12638703 -0.10946209 0.0728894 8.60928 -7.662701 19.600563
13.337391 6.1810107 13.070214 9.514401 8.014172 0.7595919 -0.08458249 0.1861235
0.056597628 0.07320198 13.892059 10.06234 0.23067059 -0.008669867 12.341513 0.17838499
3.6337504 -17.000814 4.9543467 -0.008763052 11.578291 9.678876 -5.952914 8.407919
12.918039 -0.056940205 0.06670719 -3.7201495 0.35118186 -2.568635 -0.030954253 -0.12898056
0.10444716 -12.490572 21.879156 0.6257136 7.6998467 -0.0822387 0.06444212 19.693865
-0.09855151 3.1663198 0.16126256 8.688944 -0.128319 11.548198 0.1732114 0.075732015
-2.3142862 13.21925 -0.29055876 0.1278625 -0.10548672 20.675716 0.11037158 0.025917435
-6.643349 -0.45014033 -8.171004 0.04155976 0.21139695 -0.22163597 -0.21528512 8.905206
13.831645 0.54671794 4.480617 -0.13716996 16.280773 -0.11717996 -1.0845828 0.2134079
6.380584 0.07819978 -0.9538465 0.21712206 5.946123 0.045996416 17.375418 16.422426
-0.3028123 3.790633 9.154372 -7.5403666 -0.06555236 -3.4065785 0.10731258 -0.04505416
-0.13970461 -4.367646 0.042407904 -0.0058546406 0.044036105 0.7611603 0.22859943 9.112139
4.02251 34.821095 0.107169144 -0.11718073 0.08432961 13.81285 8.431189 -0.07696624
0.25540373 -11.79276 12.35877 17.494253 13.125304 12.632792 0.14124659 -0.014007116
0.17115743 25.144182 0.056841016 8.372789 18.715933 0.18872799 0.06473242 -0.09181456
0.20959625 -0.1928944 0.28457528 0.07130259 -0.08297586 8.790282 -7.0056825 18.991045
12.753326 5.9030013 13.022795 9.368483 7.0406218 0.981917 0.14324152 -0.13734044
-0.050392076 0.04492158 14.52458 9.553119 -0.7559943 -0.15152232 12.084116 0.19382924
2.990288 -16.42039 5.0092993 0.060455646 11.48599 9.213655 -5.934322 8.83118
12.846024 -0.0042897915 0.020002266 -3.31318 -0.25927582 -2.229786 0.13909109 0.13523953
-0.09908217 -11.9154215 21.45794 0.34933344 8.212765 -0.002282122 0.06977722 18.705442
0.19387613 3.0695443 -0.07848041 8.082379 0.09397378 11.937275 -0.100616425 0.0052293465

weight f4 [32, 384]
00000000: 64c4 183d 6a42 823c 4cdf 513c c10c 263d
00000010: 2d9e 41bd dc10 193d 1792 873c 5211 0cbd
00000020: 9f6e 4b3c f404 69bc 89cc a7bc a91a b5bb
00000030: ea17 c5bc d9c6 363d e9e7 333d b362 b2bb
00000040: 285b 39bd b797 4cbb 96f6 5c3b f6b6 0b3d
00000050: 7d34 d73a 3457 733c 12d8 5d3c 6b33 edbc
00000060: 4ca7 01bd 5fd1 3abd b419 d2b9 657b 813c
00000070: 29cd 6dbb 13e4 4a3d f27e 1fbc 7964 08bd
00000080: 5559 0b3c 2574 6bbc f03c e5bb 3d88 4a3d
00000090: 72ea bfba f496 363d 4750 df3b 8585 9bbc
000000a0: 1a3f 193d 6521 eebc 134f dd3a c1ee 3b3c
000000b0: f8a1 bb3c 3edb 40bd 450f 243b 4a7b 58bc
000000c0: 3a86 073d faa5 8c3c 6e8d a73c 8a5a fb3c
000000d0: 3a2f 3bbc 7a45 56bb 55b0 273d 9d78 28bd
000000e0: eb7a 10bd 23a8 743b b599 a5bc e088 3f3b
000000f0: 55a4 383d 53d8 c1bb 3638 32bd 0409 bebc
00000100: 8af5 3f3d 0cae 37bc a34d b7bc 472c bc3c
00000110: 6a02 cf3b 684a 38bd 2812 2e3d b969 eb3c
00000120: d5ad 353d 01f0 b63c 5bf2 8cbc 2378 88bc
00000130: 6198 ca3c 3914 22bc 09eb 233c 498a 4abd
00000140: 1aa6 cebc 1148 9b3c 79df 24bb abf9 c8bc
00000150: c552 36bd 91d8 043d 621a 28bc 115f 4dbd
00000160: 57a9 493d 836e cb3c f10c fabc 068d 18bd
00000170: 20fb 493d 646b 5f39 f06b fbbc 0690 f03c
00000180: 1128 2ebc 4419 653b 0ac6 d9bc 6e0a 31bd
00000190: f5d0 0abd 949c b7bb 3052 17bd a803 4e3d
000001a0: 78c9 103a cc0a a0bc 9838 a53c 0850 39bd
000001b0: 01d4 d5bc f604 9d3c 3099 31bd d05a d03c
000001c0: 7d8e 8c3b c448 2ebd c770 4fbd 7f1f 843c
000001d0: b198 c53c b223 27bc 3ed4 38bd 4ef0 f0bc
000001e0: f0b9 b13b 0758 f33a 0605 563c bad6 133c
000001f0: e44c 2fbb 049d dc3c 28c1 4a3d 9a13 2e3d
00000200: fbee 3d3d 5b17 8dbc 43af 8ebc f1f1 b8bb
00000210: 1f1d 773c 2937 a93c 880d 95bb a803 07bd
00000220: 0bb5 1dbd cd3a 493d 9ec9 60bc c706 e2bb
00000230: e819 00bd 5640 cfbc 69a3 373c 8113 b03c
00000240: a843 a5bc d7de 99bc 2e94 253d cf4c d7bc
00000250: bff2 1bbd 5871 02bc dce4 463d dbec 353c
00000260: 4d0d e73b 6635 d0bb 8e9d 023d 4934 cfbc
00000270: 1eb8 0d3d 6a85 453c 06eb b93b ed33 e63b
00000280: 1de9 00bd fc3d 1b3d 788f db3c da7a 23bd
00000290: e99d 42bd db3b 57bc 3ddd 0a3d 0fd1 cdbc
000002a0: c7ba 413d ca2e d2bc 72cf 3cbd e4e4 b73c
000002b0: 9ba4 fcbc 0dcd 03bc b863 82bc 09df 84bb
000002c0: e922 36bd 2cb7 3fbd 8bb5 b33c d17b bdbb
000002d0: 702d fcbc 8664 aaba 0cc8 3ebd 66ef 5d3c
000002e0: 3d88 c63c 9db6 4a3d e648 2abd 81c3 cabb
000002f0: eede e23c 8c8f 3f3d 9eb6 14bd 98a7 b13c
00000300: d898 ac3c 5607 fc3c cd1a 10bd 5e29 153d
00000310: c315 b6bc 29aa 00bd 4e03 263c 3612 313d
00000320: 9e6b 0abd 8e32 df3c e281 bfbb ed74 853c
00000330: 500d 233d ea03 633c 6985 2dbd 01ba 7bbc
00000340: cbf1 253c 4354 30bd daff 0a3c 237a e0bc
00000350: 0432 26bc 958d 953c a539 28bd f231 06bd
00000360: 03ac be3c 4abb 4ebd b5d8 0f3d 952c 21bd
00000370: b866 57ba ada2 2b3c 06f5 a43c afbb 01bd
00000380: 1008 e13b 3001 b43c c647 333d aa4c 1dbd
00000390: 13d7 cfbc 7091 733c d4b9 d6ba c00d 0dbd
000003a0: 78ec 2fbd d598 39bd 4643 12bd 7ffd b1bc
000003b0: 1125 11bd 3a5d 37bd 3c87 823b 442a f53c
000003c0: 431a c5bc 2c37 a73b 94e9 24ba 7268 c33c
000003d0: 4df5 10bd 40c7 1e3b b319 433d ec39 153d
000003e0: 632a 4fbd 0fbb fbbb 9366 f939 5809 8abc
000003f0: 1353 09bd 6a71 11bd cae3 0a3d 1957 87bc
0.037296668 0.01590081 0.012809586 0.040539507 -0.04726999 0.037369594 0.016549153 -0.034196205
0.012416511 -0.014222372 -0.020483272 -0.00552686 -0.024059255 0.04462323 0.04392234 -0.005443895
-0.04525295 -0.0031218359 0.0033716313 0.034110032 0.0016418841 0.014852334 0.013540285 -0.028955182
-0.031653687 -0.045609828 -0.00040073472 0.01580591 -0.0036285615 0.049533915 -0.009734856 -0.033298943
0.008505185 -0.014370953 -0.0069957897 0.049446333 -0.0014642014 0.044577554 0.0068149897 -0.018984566
0.037413694 -0.029068658 0.0016884528 0.011470498 0.022904381 -0.047084086 0.0025033515 -0.013212988
0.033086993 0.017168988 0.020453181 0.03068282 -0.011424834 -0.003269522 0.040939648 -0.04113065
-0.035273474 0.0037331663 -0.020214895 0.002922587 0.045078594 -0.0059156804 -0.04351064 -0.023197658
0.046865024 -0.01121093 -0.022375887 0.022970332 0.0063174265 -0.044992834 0.042497784 0.028736936
0.044355232 0.02233124 -0.017205408 -0.016658848 0.024730863 -0.009892517 0.010004767 -0.049448285
-0.025225688 0.018955262 -0.0025157614 -0.024533113 -0.04451253 0.032433096 -0.010260196 -0.05013949
0.04923376 0.02483297 -0.030523749 -0.037243865 0.049311757 0.00021306943 -0.030691117 0.02936555
-0.01062967 0.0034957686 -0.02658369 -0.043222837 -0.033890683 -0.0056033824 -0.036943614 0.050296456
0.0005523185 -0.019536398 0.020168588 -0.04524234 -0.026102068 0.019167405 -0.04335898 0.025433928
0.004289447 -0.042549863 -0.050644662 0.0161283 0.02412066 -0.0102013815 -0.045124285 -0.029411461
0.005423777 0.0018565663 0.013062721 0.009023363 -0.0026748711 0.02693034 0.049500614 0.042499162
0.046370488 -0.01722305 -0.017417556 -0.005644076 0.015082627 0.020656185 -0.004548732 -0.03296247
-0.038502734 0.049128342 -0.013719944 -0.0068977806 -0.031274706 -0.025299232 0.011208394 0.021493675
-0.020173863 -0.018783016 0.04042452 -0.026281742 -0.038073298 -0.007961594 0.0485581 0.011103834
0.007051146 -0.006354022 0.031888537 -0.025293486 0.034599416 0.012055734 0.005673769 0.007025233
-0.031472314 0.03790091 0.02680181 -0.039912082 -0.047513876 -0.013136829 0.033902396 -0.025124101
0.047297265 -0.025657076 -0.046096273 0.02244801 -0.030840209 -0.008044493 -0.01591669 -0.004054908
-0.044466887 -0.046805546 0.021937152 -0.0057825823 -0.030783385 -0.0012999929 -0.0465775 0.013545847
0.024234885 0.04949056 -0.041573428 -0.0061878567 0.027694192 0.046767756 -0.03630697 0.02168636
0.021068975 0.030765217 -0.03518181 0.036416404 -0.022227174 -0.031412277 0.010132624 0.043230258
-0.033794038 0.027245786 -0.0058443407 0.016291106 0.039807618 0.013855914 -0.042363558 -0.015364171
0.010128449 -0.04304911 0.008483851 -0.02740199 -0.010143761 0.018255988 -0.0410706 -0.032762475
0.023275381 -0.05047158 0.035118777 -0.039349157 -0.00082169054 0.010475797 0.020136368 -0.03167313
0.006867416 0.021973222 0.04376962 -0.03840319 -0.02537111 0.014866218 -0.0016382285 -0.03443694
-0.042950124 -0.045311768 -0.03570869 -0.021727322 -0.03543574 -0.044766642 0.0039834064 0.02992738
-0.024060374 0.0051030125 -0.00062909094 0.023853514 -0.035390187 0.002422765 0.04763193 0.03643219
-0.050577533 -0.007682211 0.00047569405 -0.016850159 -0.03352649 -0.03550855 0.033908643 -0.016521024

bias f4 [32]
00000000: cca3 6ebb 2588 f6bc c731 a93b 7d86 843c
00000010: 3315 3fbd 7dd0 503d fa45 de3c 9b54 4fbd
00000020: 05c8 b9bc de46 383d 5d84 5c3b fa65 24bd
00000030: 355b c9bc 17fc 3cbd f7bb 7d3c 1358 d2bc
00000040: a680 453d 14ab 6b3c d845 dbbc 1a0b 173d
00000050: 1e68 22bc 0933 0bbd 96c9 29bd 8b93 bfbc
00000060: 8c7f ae3c 62fa 3d3c b1ec 7fbc 851d 91bc
00000070: 2b00 53bc 1c40 0dbd 1159 413d 6398 39bd
-0.0036413549 -0.030094216 0.0051634046 0.01617741 -0.046651077 0.05098008 0.027132977 -0.050617795
-0.022678385 0.04498946 0.003364823 -0.040136315 -0.024579624 -0.04613885 0.015486709 -0.025676763
0.04821839 0.01438405 -0.026766703 0.03687582 -0.009912519 -0.033984218 -0.041452013 -0.023385784
0.021301053 0.01159534 -0.0156203965 -0.017714271 -0.012878458 -0.034484968 0.04720408 -0.045311343

weight f4 [16, 32]
00000000: a0c9 a7bc bc8d c63c 6950 4f3a 3327 fdbb
00000010: c89f 0fbe 0118 9dbd a53c c9bd 26ee 243e
00000020: 1ed6 5cbd 7ef7 01be 8b86 fcbd 1794 03be
00000030: 7086 03bd 19a2 98bd b45f 03be 241d 7abd
00000040: 0db1 103e f6f0 20be 70de 61bc 1b51 293e
00000050: 7dba e63d 9ee4 2d3d 2373 983d 9452 7dbd
00000060: 1144 0cbe 9e8b debd d914 d3bd 9b3f 043e
00000070: de2f c43a e429 13be 7248 07be 81e4 47bc
00000080: c8ca cb3d 0556 ad3c 247c 023d 0613 25bd
00000090: 4e28 14bb 37b4 d53d dea1 6b3d 8246 71bd
000000a0: 54e2 343e 2ca1 fe3d dc91 783d 20a7 ac3d
000000b0: 5681 f23d 1a09 d8bc a816 ff3c fef6 60bd
000000c0: ac46 63bd c538 e23b 56e8 f2bd 87de 203e
000000d0: 07af f1bd cf35 e8bd 53fb c8bc f357 ec3d
000000e0: 7b13 b3bd 399c 43bc 649d ca3d 695f 1ebe
000000f0: ab38 283e c72e c33d cb8d 743d 0a9a 1839
00000100: cbb1 d43d 533b 4cbd 1be1 773c 27c3 063e
00000110: d7e8 c9bd fe28 423c a510 013e 528e 803c
00000120: 271d d8bd ee3d 053d f414 1abd 4624 1bbe
00000130: 492e 643b 4d21 da3b 7dd4 ea3d 57ad 08bc
00000140: 1788 02be b88a 1d3e 6e9e 193d 5f13 4bbd
00000150: d41f da3d 6a84 043e 6792 013e b0d2 0d3e
00000160: 55e2 90bd 32f7 263e 83fa dd3d c24c f4bd
00000170: 1ad2 ad3d 6f06 ccbd 56af 9f3d 90ec cfbd
00000180: 8775 b13d 1eec 94bd 3dbb 1f3d e345 11bd
00000190: b2c8 bf3d eb96 24bb c579 a83d 46ce 8abd
000001a0: efc9 a93d 422f c63d 830b 523c e9b0 56bd
000001b0: cf29 de3c 2a81 27be 6ae8 60bc 392e 153e
000001c0: 1b5a b53d bca6 aebb bdc8 b9bd 833d 183d
000001d0: 9b0f 1f3e 3170 b53d c50a 5d3b df34 5d3d
000001e0: 4aa3 6a3c 4b33 2fbd 1ae6 04be 31ed abbd
000001f0: 640d 9abd 9a90 d3bd 2b9b 2e3e 8a4e 1abe
00000200: f1e9 133c 505b 223c f7ba b5bd 048e b2bc
00000210: 541d 843d 93fb fdbd 436e 703d f36c 1dbc
00000220: 77dc afbd 653c 0bbe bfd7 8cbc 8866 a9bd
00000230: e4ba 793d b03b 33be 283d 093e e326 2f3e
00000240: 99aa 6b3c 3b94 f6bd b7e8 2ebe c268 ae3d
00000250: cc51 763d 335b 163e 4785 c0bd 71c1 cc3d
00000260: 1ee2 92bd 618b 08be 8dae 6f3c b8d4 51bd
00000270: d11e a43d 810e bfbd 546a e93d d542 03be
00000280: 7ba6 383d f300 f13d 8cc9 57bd 6ceb 2abe
00000290: 2c64 883d e603 1fbe 3fc4 bebd 2153 a3bd
000002a0: eec0 bebd d54a 263e b14c 07be 3e55 0a3e
000002b0: b7c2 ebbd 148b 113e 3f1c 6fbd 9ec2 efbc
000002c0: f121 ffbd f306 a73c 36e0 8fbd c8c6 28be
000002d0: a6bd b13d 1c0e 713d 8e44 efbd 2e5a 2a3e
000002e0: de81 8ebc d4e9 eb3d 8d81 80bd ce5e 33be
000002f0: 0150 adbd 3d0e 0cbe dc14 243e 69e6 133e
00000300: f3d6 08bd 674c 32be ff87 e03d 6681 6d3d
00000310: 1ce7 e73d 5b4a 103d b603 993d 7ab5 37bc
00000320: 748c 323e 67e4 05bd 07e2 a83d 8ce0 2fbe
00000330: 1b17 d0bc 4e59 993c ebea 133e 0096 c33d
00000340: 88da 2f3e 330e b73c 96ae 6dbd f939 193c
00000350: b8e6 81bb 2447 583d 8ab5 083d a7b2 a2bd
00000360: 13c1 9c3d b310 9c3c e376 00be 3c5d a63b
00000370: 9929 00be 7826 71bb 7737 463d 99ea 34be
00000380: 2342 fd3d 942a a4bd 3c7a 03bd c1bc 25bd
00000390: 7890 0c3e b004 e0bd c9e2 32be 087d 26be
000003a0: e4bc a43d 48b8 7fbd bc39 d73c 8e6e af3d
000003b0: 9fc7 5b3b 1a3b 343e 1a53 913d 9b42 2dbe
000003c0: d0ef 0ebe 4bb1 22be 4b5e f6bd 3277 31bd
000003d0: 75c0 87bd 951c 2bbe 3ba6 973d 1c94 093d
000003e0: e377 c0bc 36cf 8b3d aed4 43bd fb86 6e3c
000003f0: 8ae9 99bd c5eb c03d 7ffe 0e3e 183e 073d
-0.020481884 0.024237506 0.00079084054 -0.00772562 -0.14025795 -0.07670594 -0.0982602 0.16106471
-0.053915136 -0.12692067 -0.123303495 -0.1284946 -0.03211063 -0.07452793 -0.12829477 -0.061062947
0.1413004 -0.1571692 -0.013785943 0.16534846 0.112660386 0.042454354 0.074438356 -0.06184633
-0.1369784 -0.108664736 -0.10306711 0.12914889 0.0014967879 -0.14371449 -0.1321123 -0.012200476
0.09950787 0.021159181 0.03185667 -0.040301345 -0.0022607031 0.10434764 0.057527415 -0.058905132
0.17664462 0.12433085 0.060685977 0.08430314 0.11841075 -0.026371527 0.031138733 -0.05492305
-0.05548732 0.00690374 -0.11860721 0.15709887 -0.11800962 -0.11338388 -0.024533903 0.115402125
-0.0874395 -0.011939102 0.09893301 -0.15466084 0.16427867 0.095304064 0.059705537 0.00014553234
0.10385474 -0.049861263 0.015129353 0.13160382 -0.09858864 0.011850594 0.12604006 0.015692864
-0.10552435 0.032529764 -0.03761764 -0.15150556 0.0034817627 0.006656802 0.1146631 -0.008342109
-0.12747227 0.15384948 0.037504606 -0.04957902 0.10650602 0.12941137 0.12653504 0.13849902
-0.070744194 0.16305235 0.10838797 -0.11928703 0.08487339 -0.099621646 0.077971146 -0.101525426
0.08664995 -0.07271598 0.038996924 -0.03546704 0.093644515 -0.0025114368 0.08226351 -0.06777625
0.08290469 0.096769825 0.012820127 -0.05241481 0.027119545 -0.16357866 -0.013727287 0.14568414
0.08855077 -0.005329935 -0.09071491 0.037168037 0.15533297 0.088592894 0.0033728343 0.0540055
0.014321158 -0.042773526 -0.12978402 -0.0839485 -0.07522085 -0.10330315 0.1705138 -0.15069023
0.009027944 0.009909466 -0.08873551 -0.021796234 0.064509064 -0.124014996 0.058698904 -0.009608495
-0.08586972 -0.13597257 -0.01719272 -0.082715094 0.06096925 -0.17503238 0.13402236 0.17104678
0.014383935 -0.120399915 -0.17080961 0.08516075 0.0601366 0.14683227 -0.09400421 0.099978335
-0.07172035 -0.13334419 0.0146290185 -0.051228255 0.0801369 -0.09328938 0.113972336 -0.12818463
0.045080643 0.11767759 -0.052682444 -0.16691369 0.06659731 -0.15528831 -0.09314775 -0.0797484
-0.09314142 0.16239484 -0.13212849 0.1350908 -0.11511748 0.1421321 -0.058376547 -0.029267605
-0.12457646 0.020389056 -0.07025187 -0.16482079 0.08678751 0.058851346 -0.11682998 0.16635963
-0.01739591 0.115192086 -0.0627471 -0.17516634 -0.08462525 -0.13677306 0.16023582 0.14443363
-0.033408117 -0.17411958 0.10963439 0.057984732 0.113233775 0.03522716 0.07471411 -0.011212701
0.17436391 -0.032688525 0.08246236 -0.17175502 -0.025401643 0.018719342 0.14445083 0.095500946
0.17173207 0.022345638 -0.058027826 0.009352201 -0.0039642714 0.05280222 0.033376254 -0.079442315
0.076540135 0.019050932 -0.12545352 0.0050770324 -0.12515868 -0.003679661 0.04839274 -0.17667617
0.1236613 -0.08015934 -0.032098994 -0.040463213 0.13726985 -0.10938394 -0.17469324 -0.16258633
0.080438405 -0.062431604 0.026272647 0.085660085 0.0033535731 0.1760067 0.070959285 -0.16919939
-0.13958669 -0.15887944 -0.12029704 -0.043326564 -0.06628505 -0.16710122 0.07404753 0.033588514
-0.023494666 0.06826632 -0.04781025 0.014558549 -0.07515247 0.094199695 0.1396427 0.0330182

bias f4 [16]
00000000: e4eb 2c3d 0c5f 0abd e4eb b5bc 663c 16be
00000010: 9ae6 c73d a02b dfbd 917e bbbc 12b6 1fbe
00000020: ab26 013e f433 0f3d 2574 873c 1429 073e
00000030: 784d b13c f06c fd3d 2b85 07be 3ff0 9fbc
0.04221715 -0.03378205 -0.022207208 -0.14671478 0.09760781 -0.10896993 -0.0228875 -0.15596798
0.12612407 0.034961656 0.016534874 0.13199264 0.021643385 0.12374294 -0.13234393 -0.019523738

weight f4 [1, 16]
00000000: 7e57 09be c6a4 ab3d a819 73be 160c 91bd
00000010: 5e3f 853c 46b9 7e3e 8aa4 c6bd 3053 1bbe
00000020: 4215 1bbe 4a3a e8bd 2297 0ebd 8224 3f3e
00000030: ae9f 18bc 32df 01be ce67 99ba 08df 64be
-0.13412282 0.083810374 -0.23740256 -0.07082383 0.016265567 0.24875364 -0.09699352 -0.15168452
-0.15144828 -0.11339243 -0.0348121 0.1866627 -0.009315414 -0.12682799 -0.001170391 -0.22350705
