qm7b/best_model.pth (torch, 87725 bytes, 12 tensors)

embedding_weights f4 [6, 3]
000000 e4 68 78 3e 10 24 8a 3e b4 83 45 bd f6 15 87 3e
       0.24258763 0.26980639 -0.048221305 0.26383942
000010 a2 e3 81 bd 7b 4b 9f 3e d0 3c 81 3e 5e 6f 11 3e
       -0.06342246 0.31112275 0.2524171 0.1420264
000020 06 4c 9c 3e 09 43 6d 3e 23 52 85 3e 6c 40 77 3e
       0.3052675 0.23170103 0.26039228 0.24145669
000030 71 d0 de 3e e1 7b af 3d 10 8a 81 3e 29 9e c9 3d
       0.43518403 0.0856855 0.25300646 0.0984462
000040 d3 53 f1 3e b0 8c 88 3e
       0.47134265 0.26669836

bessel_weights f4 [6]
000000 34 89 a6 3e 08 fe a4 3e d2 e7 83 3f 11 02 c0 3f
       0.32526553 0.3222506 1.0305121 1.5000631
000010 79 f2 01 40 0c 50 78 40
       2.0304244 3.8798857

0 f4 [6, 8, 9]
000000 6f 17 f3 40 66 a6 c9 40 e6 55 04 40 22 42 16 3f
       7.5966105 6.3015623 2.0677428 0.5869466
000010 a9 cf 3a 3f 28 22 db bf 4e 2d f4 bf 76 29 83 40
       0.72973114 -1.7119799 -1.9076326 4.098811
000020 d1 a1 df bf fc 08 36 3f b3 68 61 40 36 3f 2e bf
       -1.7471257 0.7110746 3.5220153 -0.680652
000030 a1 5a 03 c0 8c b3 90 3f 7e fc 8a 3f 96 d2 e8 3f
       -2.0524065 1.1304793 1.0858305 1.8189266
000040 f0 7b 81 40 8c 6b ca 3f 23 9a 7f 40 3e d9 1d c0
       4.046379 1.5814071 3.9937828 -2.4663844
000050 89 6d c0 3f e8 95 37 3f 5e ac 5c 3f 3c be 0d bf
       1.5033427 0.71713114 0.8620051 -0.553684
000060 ce 40 84 40 ab e6 b1 bf 25 19 9b bf a3 1d e1 bf
       4.1329107 -1.3898519 -1.2117049 -1.758717
000070 8d 8d 26 40 9e 7e 38 3e ca 2e 0b 40 ec 26 27 40
       2.6023896 0.1801705 2.1747308 2.6117506
000080 3a b8 86 c0 59 82 68 c0 3c 4f 84 40 06 14 c1 3f
       -4.2099886 -3.6329558 4.134672 1.5084236
000090 91 07 90 c0 5a 35 ea 3f b9 43 68 3f dd 3f ea 3f
       -4.5009236 1.8297532 0.90728337 1.830074
0000a0 fc 52 4e 40 4b b1 a5 40 ff a4 0d 41 d9 f1 fe bf
       3.223815 5.177892 8.852782 -1.9917556
0000b0 e4 8a 51 bf 94 c5 9b be ee 97 42 40 d6 d0 4d bf
       -0.81852555 -0.30424178 3.040523 -0.80396783
0000c0 4b 0f 2f bd 28 fc 89 bf 84 35 37 40 7e 3f 64 40
       -0.042739194 -1.0780077 2.8626413 3.5663753
0000d0 e5 31 29 c0 64 57 06 bf 8b aa 9b 40 29 d1 24 c0
       -2.6436703 -0.524771 4.864568 -2.5752661
0000e0 35 e2 a8 40 c6 32 0c 3c bf 4f 56 3f 76 9c 36 40
       5.277613 0.008557027 0.8371543 2.8532996
0000f0 40 c9 2e c0 b1 68 e7 3f 13 82 c9 3f 32 06 33 3f
       -2.7310333 1.8078824 1.574282 0.6993133
000100 47 52 88 3f 00 bc ef 3e 65 9d ab 3f 50 66 45 3f
       1.0650109 0.4682312 1.3407408 0.7710924
000110 5b 11 19 40 ec 6c 56 40 5b e6 4f 40 40 fc d1 bf
       2.3916843 3.350398 3.2484348 -1.6405106
000120 61 53 f2 40 7f f1 c3 40 94 f7 18 40 43 b5 ad 3f
       7.572678 6.1232295 2.390111 1.3570942
000130 96 8c 80 3f e4 c3 03 c0 ab b3 e8 bf ec 30 59 40
       1.0042903 -2.0588312 -1.817983 3.393611
000140 4c a3 03 c0 de 5e 71 3f 99 99 72 40 18 98 60 bf
       -2.0568419 0.9428538 3.7906249 -0.87732077
000150 11 8a b4 bf 17 57 a1 3f bb 14 68 3f ee b5 ca 3f
       -1.4104635 1.2604703 0.9065663 1.583677
000160 d6 5d 74 40 5f 61 78 3f 0d 18 8c 40 8c 87 e3 bf
       3.8182273 0.97023576 4.377936 -1.7775741
000170 4e 80 c9 3f ae 12 37 3f 69 fe fc 3e 74 af 9d bf
       1.574228 0.7151288 0.4941285 -1.2319169
000180 5b 1a 86 40 0b d8 b2 bf 6a f4 ff bf 01 bd d3 bf
       4.190717 -1.3972181 -1.9996464 -1.6542054
000190 0f 57 47 40 9e e7 6a 3f 38 11 03 40 b0 14 20 40
       3.1146886 0.9175967 2.047926 2.5012627
0001a0 9f 30 82 c0 1e 41 4f c0 a3 c8 7a 40 52 9e ad 3f
       -4.068435 -3.2383494 3.918496 1.356394
0001b0 35 1d 91 c0 d9 93 cc 3f f1 9f 7a 3e 0d 27 0e 40
       -4.5348153 1.598262 0.24475075 2.2211335
0001c0 00 e2 3e 40 45 93 aa 40 51 a6 0d 41 73 18 09 c0
       2.982544 5.330477 8.853105 -2.1421173
0001d0 0a 54 07 bf c9 f7 8c be 43 0d 21 40 52 11 5f bf
       -0.5286261 -0.27532795 2.5164344 -0.87135804
0001e0 06 3c 05 3f fe 59 84 bf cc a6 1d 40 fb 7c 51 40
       0.52044713 -1.0339963 2.4633055 3.2732532
0001f0 92 6a 45 c0 a4 1a d3 be d1 f7 91 40 98 42 24 c0
       -3.0846295 -0.41231263 4.561501 -2.5665646
000200 7a 3d 99 40 87 69 dd 3d 5d 41 65 3f ad 5e 59 40
       4.7887545 0.10811143 0.8955286 3.3964036
000210 58 06 3e c0 38 15 b9 3f 90 89 00 40 af 88 9e 3e
       -2.9691372 1.44596 2.0083961 0.30963656
000220 31 82 61 3f 28 e5 cf 3e 41 03 af 3f 82 6e 85 3f
       0.8808928 0.4060452 1.3672868 1.0424349
000230 4b b1 02 40 f1 09 52 40 1b b5 76 40 40 b7 9d bf
       2.042071 3.2818568 3.8548038 -1.2321548
000240 95 6e 53 c0 ac e3 a1 c0 aa 43 8d bf 50 cd ed bf
       -3.3036244 -5.059042 -1.1036274 -1.8578281
000250 53 b4 d7 bf 36 7f 74 40 38 92 66 40 7f cc cf c0
       -1.6851906 3.8202643 3.6026745 -6.493713
000260 e1 17 46 40 91 07 e5 bf af 53 4e c0 2c f8 c6 3f
       3.0952075 -1.7892934 -3.2238576 1.5544486
000270 1e c5 54 40 3c 85 0e c0 50 ec ff bf 18 90 b6 c0
       3.324531 -2.226882 -1.9993992 -5.7050896
000280 bb 06 ba c0 0e fa 20 c0 6c 76 05 c1 15 72 88 40
       -5.8133216 -2.5152621 -8.341412 4.263926
000290 3b fd 3c c0 67 f1 97 bf 8d b1 a9 bf b4 6a e5 3f
       -2.952956 -1.1870545 -1.3257309 1.7923188
0002a0 f9 f1 ff c0 7d 8a fc 3d 59 4a 4a 40 4d d9 46 40
       -7.9982877 0.12331102 3.1607878 3.107013
0002b0 48 cf ce c0 21 55 c8 bd f1 b0 7a c0 97 d8 09 40
       -6.462803 -0.09781862 -3.9170496 2.1538446
0002c0 8f 97 ca 40 ab 07 d3 40 03 27 78 bf 33 2d 34 c0
       6.331001 6.594686 -0.9693453 -2.8152587
0002d0 cf 5f 54 40 84 e6 57 c0 9d 49 93 bf 83 a6 eb bf
       3.3183477 -3.3734446 -1.150684 -1.841019
0002e0 e4 ae 7f bf 26 a1 86 be c0 80 bf c0 94 de c2 40
       -0.99876237 -0.26294822 -5.9844666 6.08967
0002f0 36 f0 3d bf bb 73 13 3f 44 ba af c0 14 d8 d6 3f
       -0.7419466 0.57598466 -5.4914875 1.6784692
000300 eb 5d eb be 0b 79 01 40 00 2e ad c0 ce f1 bf c0
       -0.4597009 2.0230129 -5.411865 -5.998267
000310 91 aa 97 40 4d f8 52 40 ee f8 ae c0 83 33 a2 40
       4.739571 3.296405 -5.467887 5.068788
000320 6c 35 06 c0 06 4d 65 3f 9c 2b ca bf 16 60 ce c0
       -2.0970106 0.89570653 -1.5794559 -6.4492292
000330 e0 b5 56 40 bd 64 24 c0 ed 91 47 c0 ee 08 81 bf
       3.3548508 -2.5686486 -3.1182816 -1.008085
000340 1e a0 f9 bf 78 d6 5f bf bc 64 22 c0 47 c9 94 3f
       -1.9501989 -0.8743663 -2.5373983 1.1623925
000350 df 32 81 c0 a6 0c ce c0 5b 44 95 c0 45 4d 35 40
       -4.03746 -6.439044 -4.664594 2.8328412
000360 e9 d1 36 bf b3 4a 2d 3f 57 4a 35 40 b1 45 a3 3f
       -0.7141405 0.67692107 2.8326623 1.2755643
000370 97 55 8c 3f 4f 0c 30 c0 9b ac 1f c0 80 d0 6d 40
       1.096362 -2.7507513 -2.49491 3.7158508
000380 77 22 db bf a7 59 b4 3f 49 9b f5 bf 29 cb 8a bf
       -1.7119893 1.408986 -1.9188014 -1.084325
000390 51 45 10 c0 b5 2b b1 3f 24 ca b3 3f c6 e9 cc 40
       -2.2542307 1.3841463 1.4046063 6.403537
0003a0 1c f0 0f 40 e8 f5 dd 3f 23 cc bb 40 45 98 41 c0
       2.24903 1.734067 5.868669 -3.0249188
0003b0 b4 2e f6 3f 60 db 2d 3f e1 4c 5b 3f 06 cf 9f bf
       1.9233003 0.67912865 0.8566418 -1.2485054
0003c0 b2 0e b0 40 fd c7 2a 40 de 63 0b c0 c9 80 ca bf
       5.501794 2.6684563 -2.1779704 -1.5820552
0003d0 dd 1f b5 40 07 4b 8a bf e6 0d 23 40 4c a3 3e c0
       5.6601396 -1.0804147 2.5477233 -2.9787169
0003e0 f3 c4 08 c0 6a 54 a9 c0 43 45 89 3f 0e d1 f7 3f
       -2.1370208 -5.2915545 1.0724262 1.9360673
0003f0 bd b8 6f 40 2d db 13 40 62 d0 4c 3f 27 5e 1c be
       3.7456505 2.3102524 0.80005467 -0.15270291

1 f4 [6, 8, 9]
000000 75 bf 5d 41 d9 74 24 c0 05 dc 2e c0 cd 04 fd bf
       13.859242 -2.5696318 -2.732179 -1.976709
000010 9f 10 cd c0 66 e4 2d 41 9a 63 bd 40 88 86 94 bf
       -6.408279 10.868261 5.9184084 -1.1603556
000020 ec d4 e8 40 19 60 ba bf da 50 a9 3f 90 7a 92 40
       7.2759914 -1.4560577 1.3227799 4.5774612
000030 3a 2e de bf 60 d1 22 40 f6 06 0e 40 be c2 f3 3f
       -1.7357857 2.5440292 2.2191749 1.9043806
000040 f6 c9 0b 41 81 26 89 bf db 69 c6 40 01 cd e2 c0
       8.736807 -1.0714875 6.200422 -7.087525
000050 40 48 11 41 dd 62 b7 40 e1 e0 54 41 c0 44 ef 40
       9.080139 5.7308183 13.304902 7.4771423
000060 de 6c 44 40 2d 1c 13 40 eb 97 01 c0 44 45 0d 3f
       3.0691447 2.2985947 -2.0248973 0.55183816
000070 5b 76 c6 3f 70 91 66 c1 79 a3 eb bf e9 13 8b bf
       1.5504869 -14.410507 -1.8409263 -1.0865451
000080 42 7c 3b 3f d9 3a 8f 40 21 18 46 3e e1 7b 5c c0
       0.7323648 4.4759336 0.19345142 -3.445061
000090 2d 7d 36 c0 8c a9 aa c0 ef 0c cf c0 d0 2b 2c 41
       -2.8513901 -5.3331966 -6.470329 10.760696
0000a0 32 a7 0b c0 eb 57 98 40 a4 23 d2 3e 5e 0e 8c bf
       -2.1820798 4.760732 0.41042817 -1.0941885
0000b0 5a 46 96 c0 6a 55 8f 3f 40 9e 93 c1 7e e4 cb bd
       -4.696088 1.1197941 -18.45227 -0.09955691
0000c0 43 bc a1 c0 b6 dd 41 3e 0b 86 2d 40 73 4c fb 3f
       -5.054231 0.18932232 2.7113063 1.9632705
0000d0 e6 8e 2e 40 f0 46 e9 be b7 08 9e 3f 0b 70 06 40
       2.7274718 -0.45561934 1.234641 2.1005886
0000e0 17 ce 65 be c9 fb bb c0 be 01 f2 3e ef 5f 65 bf
       -0.22441898 -5.8744855 0.47266954 -0.8959951
0000f0 1e cf c9 40 1b 3a 32 c0 3d bf af 40 82 32 ff be
       6.306533 -2.7847965 5.4920945 -0.49843222
000100 e9 6f c8 40 ec 7e 80 41 01 a7 00 40 67 80 a3 bf
       6.263661 16.061974 2.010193 -1.277356
000110 7b 45 3f bf ac b8 14 3d 91 8f 9c bf ba 1c 0e 41
       -0.74715394 0.03630893 -1.2231313 8.882013
000120 cf 73 5a 41 50 de 3b c0 38 2b 0a c0 90 b9 e3 bf
       13.653274 -2.9354439 -2.1588879 -1.7791004
000130 ec 61 c6 c0 6b 04 36 41 cb 7e b0 40 bc c5 28 bf
       -6.1994534 11.376079 5.5154777 -0.6592672
000140 87 1b f2 40 b1 b2 46 bf f4 69 c7 3f 4b 9a 8a 40
       7.5658603 -0.7761641 1.5579209 4.3313346
000150 5b 83 a6 bf c1 70 01 40 5f 14 27 40 ee bd ea 3f
       -1.3008837 2.022507 2.6106184 1.8339212
000160 46 f7 0d 41 fc f9 51 bf b4 7d bb 40 7a d7 ee c0
       8.8728695 -0.8202207 5.8590946 -7.4638033
000170 0d d2 03 41 d8 af a6 40 ba 8f 47 41 d0 ab e6 40
       8.238782 5.2089653 12.4725895 7.208473
000180 e9 00 46 40 2d 5b f1 3f 87 d1 8f bf c6 48 9e 3f
       3.0938056 1.885595 -1.1235818 1.2365959
000190 90 6c d3 3f d0 7c 66 c1 83 8c 12 c0 5e c9 a6 be
       1.6517506 -14.405472 -2.2898262 -0.32575506
0001a0 df 1e df 3e 06 ff 7c 40 43 23 7b 3d 20 4e 44 c0
       0.4357824 3.9530654 0.061312925 -3.0672684
0001b0 38 59 f1 bf 98 9c a2 c0 cc 3f d9 c0 d9 86 22 41
       -1.8855352 -5.0816154 -6.7890377 10.157922
0001c0 01 72 f1 bf aa 53 a8 40 02 85 5f 3c 0d 2a 04 bf
       -1.8862916 5.260213 0.013642551 -0.51626664
0001d0 cf 2b 8b c0 da 91 b7 3f 38 4f 92 c1 24 6b 2f bf
       -4.3490977 1.4341385 -18.288681 -0.6852286
0001e0 21 8a 89 c0 70 23 27 3d bf 60 4e 40 b0 6a eb 3f
       -4.2981114 0.04080528 3.224655 1.8391933
0001f0 a3 b9 29 40 74 ea 50 bf 6c 9a 94 3f 91 db e2 3f
       2.6519554 -0.8160775 1.1609626 1.7723256
000200 47 b3 4e bf 38 87 c0 c0 0d 74 3c 3f eb 15 5a bf
       -0.80742306 -6.016506 0.7361458 -0.85189694
000210 b9 20 bd 40 88 6a f5 bf f1 73 a5 40 fe b5 95 be
       5.9102445 -1.9173136 5.170403 -0.29240412
000220 73 e1 d6 40 25 94 82 41 92 a8 e5 3f d2 1f b6 bf
       6.7150207 16.322336 1.7942069 -1.4228461
000230 2e d0 d5 be a8 8e 1e bf e7 d8 9a bf 91 74 0d 41
       -0.4176039 -0.61936426 -1.2097443 8.840959
000240 25 a9 44 c1 38 dd 79 40 05 6a 1e 40 71 57 1a 41
       -12.291295 3.9041271 2.475221 9.646348
000250 9a 2a 09 bf b6 80 14 c1 c4 4a f3 bf e3 1d 2c 40
       -0.5358063 -9.281424 -1.9007192 2.6893241
000260 ea 75 c4 c0 56 34 d1 bf 9e 47 56 3e 16 21 7d c0
       -6.139394 -1.6344097 0.20925757 -3.9551444
000270 26 73 9b 3f f4 a3 c4 bc 03 a8 e8 3f ba 64 3c bf
       1.2144516 -0.02400396 1.8176273 -0.73591197
000280 a5 8b d1 c0 e4 b0 07 40 27 6a 8d c0 04 e1 9e 40
       -6.5482965 2.1201715 -4.419208 4.9649677
000290 97 50 8c c0 41 78 47 3d 13 4e e4 c0 2d 67 a1 40
       -4.3848376 0.048698667 -7.1345305 5.0438447
0002a0 39 5b 38 c0 93 02 b4 be b8 6b 04 c0 9f 4d 96 3f
       -2.8805678 -0.35158214 -2.0690746 1.1742438
0002b0 41 3a 5f bf b7 aa 1a 41 c4 5e ff 3f 58 b6 cd c0
       -0.87198263 9.666678 1.9950795 -6.4285088
0002c0 81 d8 ca c0 e8 f3 2d c0 ca 25 59 c0 26 4c db be
       -6.3389287 -2.7180119 -3.3929315 -0.42831534
0002d0 ee 93 c7 3d 45 dd fd 3e be f4 38 41 0e 58 c8 bf
       0.09745012 0.49582878 11.5597515 -1.5651872
0002e0 d6 37 8a bf 65 2c b0 bf ff 89 12 40 3c 1e 74 bf
       -1.079829 -1.3763548 2.2896726 -0.95358634
0002f0 e3 f6 8b 3f 03 80 08 c0 8f dd 40 41 41 69 bc c0
       1.0934719 -2.1328132 12.054091 -5.8878484
000300 43 17 a4 40 b6 67 84 c0 29 ff e1 bf 7e 99 9b 3f
       5.1278396 -4.13766 -1.7655994 1.2156217
000310 9d e9 7e c0 79 db 35 c0 7d 60 ba 40 3e 26 04 c0
       -3.9830086 -2.8415205 5.8242784 -2.064834
000320 f7 90 ac 3f 47 01 e7 40 fd 2a 82 c0 7a 7b 1a 40
       1.348174 7.218906 -4.0677476 2.4137864
000330 0d 89 6e 3e f1 63 28 c0 69 46 99 c0 2e df 36 40
       0.23294468 -2.6311 -4.789845 2.8573718
000340 25 75 a7 3f 6d aa e3 c0 03 a0 6d bf 48 9f 9e 40
       1.3082625 -7.114554 -0.92822284 4.9569435
000350 09 eb 1e 40 66 dd fe 3f 06 5d f2 bf bd 83 36 bf
       2.4830954 1.9911315 -1.8934639 -0.71294767
000360 41 a1 88 3e c0 19 cf 40 58 e7 55 40 91 76 53 c0
       0.26685527 6.4718933 3.342245 -3.3041117
000370 b5 7d 0b 41 45 6e 49 c0 ec 02 88 c0 e3 9c 9f 40
       8.71819 -3.1473553 -4.2503567 4.987901
000380 cf 4d c2 c0 fc 85 15 40 61 8a e2 bf 2d 6f c0 3e
       -6.071998 2.3363028 -1.769848 0.3758482
000390 5a f6 10 be ca 73 b7 bf 79 c6 5a c0 33 e3 5c c0
       -0.14156476 -1.4332211 -3.4183638 -3.4513671
0003a0 65 9b d5 c0 c3 55 87 40 d7 10 d3 3f 25 fa 06 41
       -6.675219 4.229219 1.6489514 8.43607
0003b0 ae 9f 7d 3f fe 88 1e bf c4 02 95 bf ef 48 17 c1
       0.99071777 -0.61927783 -1.1641469 -9.455306
0003c0 58 c0 a5 bf 5e 1e f0 bf 1f 20 59 40 1d 35 2a 40
       -1.2949324 -1.8759267 3.3925855 2.6594918
0003d0 36 5a a2 bf b7 64 36 40 f1 c8 b5 3f 7a 67 f6 3f
       -1.268378 2.8498971 1.4201947 1.9250329
0003e0 bb dd 4b 40 9b 59 b2 c0 6d 7e 8b bd e8 87 89 40
       3.1854084 -5.573438 -0.06811223 4.29784
0003f0 0f 1e e9 40 ea 46 f1 40 74 f9 21 c0 25 5d e7 c0
       7.2849193 7.5399065 -2.5308504 -7.23012

2 f4 [6, 8, 9]
000000 86 39 33 40 c8 e8 7a 40 b3 71 fe 3f 10 ac d8 bf
       2.800386 3.9204578 1.9878448 -1.6927509
000010 4d bd 95 40 aa 6b 8e be 4a ab ce 3f 1a 4e ae be
       4.679358 -0.27816516 1.6146023 -0.34043962
000020 b7 0e 45 c0 a9 b0 c3 3f 3e 1b 9a bf 54 ef dd be
       -3.0790231 1.5288287 -1.2039564 -0.43346655
000030 4d 04 79 3f a9 08 64 bf 2f cb 4a 3f 6b 20 5c 3f
       0.9727219 -0.89075714 0.79216284 0.85986966
000040 e5 43 b0 c0 a0 42 48 bf ba 4d c4 bf 11 ef af 40
       -5.508288 -0.7822666 -1.533622 5.497933
000050 3e 90 c8 bf c2 bf 04 40 ce 6e bf 40 fe fe 20 c1
       -1.5669019 2.074204 5.982276 -10.062254
000060 03 62 0a 3f 51 af aa 3f 36 2a 09 40 4a 44 84 c0
       0.54055804 1.3334752 2.1432014 -4.133336
000070 c7 25 ba 3f 6d 8d a7 40 b3 ae a0 be 19 ab b4 40
       1.4542779 5.236014 -0.31383285 5.645886
000080 17 fa 4d c0 58 bf 30 40 f5 ff 98 40 22 d0 e0 40
       -3.2183893 2.7616787 4.7812448 7.025407
000090 84 c0 a8 3f 4b ba d0 40 13 4f e8 bd 24 56 2b 41
       1.3183751 6.522741 -0.11343207 10.70853
0000a0 f3 98 8e 40 8e 68 74 40 44 9d 81 3e 3a ab 97 c0
       4.4561706 3.8188815 0.25315297 -4.7396517
0000b0 e7 26 9f 40 ea c7 cc c0 70 07 55 41 f3 83 09 41
       4.973499 -6.3994036 13.314316 8.594714
0000c0 47 52 e4 be ba 39 05 41 43 83 d0 40 22 f6 54 bf
       -0.44594023 8.326593 6.516023 -0.8318807
0000d0 a6 e9 9a bf 6c 33 6a c0 02 3a 7b c0 e0 3c 94 3f
       -1.2102554 -3.6593885 -3.9254155 1.1581078
0000e0 68 e1 83 c0 f4 e3 fd c0 e3 d5 51 40 f0 6f f5 40
       -4.1212654 -7.9340763 3.2786796 7.6699142
0000f0 bf 97 03 40 b6 18 b5 c0 17 ee 96 40 d6 55 0f c1
       2.0561368 -5.6592665 4.7165637 -8.958456
000100 ee 7c 11 41 d5 c9 54 41 7e 83 9f bc 63 48 0e c0
       9.093 13.299275 -0.01947188 -2.2231681
000110 3b 86 6a 40 96 12 c4 40 c2 6b 18 40 e0 9c f8 40
       3.6644428 6.127269 2.381577 7.76915
000120 b8 c4 2b 40 a9 3d 71 40 b2 19 16 40 db 95 f3 bf
       2.6838818 3.7693884 2.3453183 -1.9030107
000130 c5 15 9f 40 5c d2 33 bf 63 1f aa 3f 68 15 73 be
       4.9714074 -0.7024286 1.3290828 -0.23738635
000140 a1 2d 37 c0 a0 1e ca 3f f7 c9 d9 bf 09 8e 6a bf
       -2.86216 1.5790596 -1.701476 -0.9162298
000150 5f 7f 1c 3f 3f d9 c4 bf a3 2f 31 3f 2f cd 54 3f
       0.6113185 -1.5378798 0.6921331 0.83125585
000160 66 a2 b7 c0 de 0c 47 bf 73 6d 82 bf 81 82 89 40
       -5.738574 -0.7775401 -1.0189651 4.2971807
000170 e8 c7 c9 bf b7 2f c8 3f c8 e3 bd 40 21 4a 19 c1
       -1.5764132 1.5639561 5.9340553 -9.580598
000180 32 20 53 3e 6c b6 81 3f b8 be 38 40 63 2d 97 c0
       0.2061775 1.0133796 2.8866405 -4.7242904
000190 e0 d2 6a 3f b3 07 a2 40 37 56 8f bc c5 87 a0 40
       0.9172802 5.06344 -0.017497165 5.0165734
0001a0 86 a0 2d c0 60 3a 51 40 ba 39 95 40 d8 6d e2 40
       -2.7129226 3.269188 4.6632967 7.0759087
0001b0 af b3 b2 3f f2 3f d1 40 df f3 17 bf 36 9a 19 41
       1.3961085 6.539056 -0.5935649 9.600149
0001c0 78 87 8c 40 7d d7 89 40 c7 2f 49 3e c3 3b 8a c0
       4.3915367 4.3075547 0.19647132 -4.319795
0001d0 db 7e 9e 40 21 45 cb c0 ad 9e 54 41 37 26 05 41
       4.9529853 -6.3521886 13.288739 8.32183
0001e0 bf 47 01 bf 51 a5 ee 40 e3 53 ba 40 15 06 5e bf
       -0.505001 7.45768 5.82274 -0.8672803
0001f0 6d a4 7c bf 25 8d 41 c0 8b ba 83 c0 33 13 b6 3f
       -0.98688394 -3.0242398 -4.1165214 1.4224609
000200 e4 0e 87 c0 7c 01 ef c0 a7 14 73 40 05 fc ec 40
       -4.2205677 -7.468931 3.7981355 7.405764
000210 4b 10 e1 3f 2f f2 aa c0 21 b6 8d 40 bb ec 09 c1
       1.7583097 -5.3420634 4.4284825 -8.620296
000220 63 a0 0c 41 d2 1a 4f 41 7a c3 08 bf f9 3a 14 c0
       8.789157 12.944048 -0.53423274 -2.3160994
000230 db 32 7c 40 cd e5 c5 40 ea 39 e8 3f ab b5 e8 40
       3.940604 6.184302 1.8142674 7.2721763
000240 4f d4 af 3e 72 bb dc c0 a2 a8 45 c0 34 a4 3e 40
       0.34341666 -6.8978815 -3.0884175 2.9787722
000250 38 61 e0 be e2 a1 80 c0 f5 6a f1 be 39 72 83 c0
       -0.43824172 -4.019761 -0.47151914 -4.107693
000260 d9 70 64 40 2e 6a 02 bf 88 48 61 3f fc 38 4e c0
       3.5693877 -0.5094327 0.880013 -3.222228
000270 e0 31 70 bd c4 b4 90 3f 45 66 e0 be 8a 80 f5 bf
       -0.058641315 1.1305165 -0.43828025 -1.9179852
000280 11 19 48 3f 57 73 36 40 1f 9c 21 3f 96 83 e0 be
       0.7816325 2.8507898 0.63128847 -0.43850392
000290 39 1d 72 3f c6 24 e4 3f dd 81 ae 3d 32 30 ea 40
       0.9457584 1.7823722 0.08520863 7.318383
0002a0 5d 35 d3 bd be 29 21 bf 74 39 47 bf 2d c6 9d 40
       -0.103129126 -0.6295432 -0.7782204 4.9304414
0002b0 32 a3 e8 bf 17 1a 2b 40 0a d2 89 be c1 7f 8a 40
       -1.8174803 2.6734674 -0.2691806 4.328095
0002c0 6a 44 6e 40 fd 53 25 40 6b f4 4a bf 25 a5 6e c0
       3.7229257 2.5832512 -0.792792 -3.7288296
0002d0 28 70 80 bf 92 53 0c 3f 72 43 52 40 e1 75 db c0
       -1.0034227 0.5481502 3.2853665 -6.8581395
0002e0 f2 0a 40 c0 d7 52 31 40 43 e6 31 bf a6 4e 3c 3f
       -3.000668 2.7706811 -0.69491976 0.7355751
0002f0 e5 cd 05 c0 8f ec 07 40 e6 8b 9f c0 d7 07 0c c0
       -2.0906918 2.1238134 -4.9858274 -2.1879785
000300 12 4e ae 3f 55 f8 cf c0 a9 2e 2e 3f 86 36 32 3e
       1.3617575 -6.499064 0.6803995 0.17403612
000310 d1 9c 48 bf bf 2d 9d 3d fb 31 d4 3f 0d 15 43 c0
       -0.7836428 0.07674741 1.6577753 -3.0481598
000320 50 f4 0f 40 c0 e8 c4 40 50 95 43 c0 86 c0 4b 3f
       2.2492867 6.153412 -3.0559883 0.7959064
000330 3d 76 02 40 03 07 43 bd 54 08 c1 3f c7 60 78 40
       2.0384667 -0.04761411 1.5080667 3.8809068
000340 51 c1 7d c0 8e 68 aa c0 77 c7 fa 3e 3d 78 c1 bf
       -3.964924 -5.325263 0.48980305 -1.5114819
000350 00 83 50 c0 bc 55 02 c0 d8 63 90 40 a9 da 13 40
       -3.2579956 -2.0364828 4.512188 2.310221
000360 24 a9 f0 3f 81 a9 a1 c0 89 51 00 3e c0 fa 30 40
       1.8801618 -5.0519414 0.12531103 2.7653046
000370 09 34 af 3f 35 1d 47 be 4f 70 57 3e b8 67 be be
       1.3687755 -0.19444735 0.21038936 -0.37188506
000380 f7 37 82 40 fc 5a 05 bf c9 af b4 3f 30 89 51 40
       4.0693316 -0.52091956 1.4116145 3.2739983
000390 58 b6 b6 be 50 56 52 40 a9 fd 85 be b8 93 05 c0
       -0.35685992 3.286518 -0.2617009 -2.087141
0003a0 39 c5 90 40 83 2b 98 bf 5e 8a 19 bf 9d f5 65 c0
       4.524075 -1.1888279 -0.59976757 -3.593116
0003b0 5f 92 f8 40 26 da 5c 40 09 56 78 bc 45 3e 0a 41
       7.7678676 3.4508147 -0.015157231 8.6402025
0003c0 83 c1 50 bf 57 a2 6d bf 71 02 e2 bf 3f a2 b2 40
       -0.81545275 -0.92825836 -1.7656995 5.5823054
0003d0 e4 eb 20 c0 26 7b 72 c0 91 60 1c 3f 9f 29 0e c1
       -2.5143976 -3.7887664 0.6108485 -8.885161
0003e0 33 04 18 3f 63 67 1c c0 49 a9 67 c0 d9 48 08 c1
       0.5938141 -2.4438102 -3.6197073 -8.517785
0003f0 6b e6 6e be 06 06 8a bf 02 c0 b7 3e 8d 9a 9d c0
       -0.23330085 -1.0783088 0.35888678 -4.925116

3 f4 [6, 8, 9]
000000 d5 78 d0 40 56 c5 2b 41 56 a1 5c bf 39 85 af 3d
       6.51475 10.735678 -0.8618368 0.08570332
000010 f8 10 f5 40 79 6d fc 40 e7 26 1d 3f 6e ae 53 40
       7.6583214 7.8883634 0.61387485 3.3075213
000020 ca c8 c1 40 d4 f8 21 c0 b6 e2 c7 40 c8 d4 56 c0
       6.0557604 -2.5308123 6.2464247 -3.3567371
000030 73 af 9c be a3 25 bf bf dc 4c 11 41 35 ae 68 3f
       -0.30602607 -1.4933361 9.0812645 0.9089082
000040 af d9 89 40 00 e5 8b 40 09 e0 75 be ce 0f e8 bf
       4.3078227 4.371704 -0.24011244 -1.8129823
000050 f9 53 5a c0 87 21 46 40 cf 07 1e 41 79 67 41 41
       -3.4113753 3.0957963 9.876906 12.087762
000060 d7 bc c8 40 db 1f 86 3f f2 a8 cb 40 92 8f 34 c0
       6.2730517 1.0478472 6.364373 -2.8212628
000070 09 f3 32 c1 02 39 63 41 9e 2f b9 3c 81 f5 18 c0
       -11.184335 14.201418 0.022605713 -2.3899844
000080 e3 5e 4c bf 5f 12 ed bf 2e f4 13 40 21 1e 9f 40
       -0.79832286 -1.8521231 2.3117785 4.972428
000090 1a c8 8c 40 bd a2 cc be 57 2b f6 bf 02 55 c9 3f
       4.3994265 -0.3996791 -1.9231976 1.5729067
0000a0 24 27 80 bf 95 9a 90 c0 86 3e 8b 40 93 e3 aa 40
       -1.0011945 -4.51887 4.3513823 5.34028
0000b0 7e d8 31 40 04 bb 1a 41 b5 10 56 3f 80 63 1c 41
       2.7788386 9.670658 0.8361924 9.774292
0000c0 5c bd de be 60 24 2e c0 cd b8 c8 3e b2 bf 6c 40
       -0.43503845 -2.7209702 0.39203492 3.6992002
0000d0 10 c0 cd bf 8c b8 d8 40 38 26 20 3f 7f a9 8b 3f
       -1.6074238 6.7725277 0.6255832 1.0911101
0000e0 6c e2 37 40 c1 ef 49 41 f3 33 66 40 4a 95 01 40
       2.8731947 12.621034 3.5969207 2.024737
0000f0 d7 92 2d c0 b0 a9 e7 be c2 02 e8 40 92 36 d7 40
       -2.7120874 -0.4524665 7.2503366 6.7254114
000100 f7 d0 be 40 4d 26 17 3f a2 b4 5e be c9 a7 36 c0
       5.9630084 0.5904282 -0.21748593 -2.8539908
000110 76 b1 ae bd 1d e4 aa c0 76 bc 1b 3f 54 14 48 c0
       -0.08529942 -5.340346 0.60834444 -3.1262407
000120 91 60 ab 40 61 50 2f 41 0d 11 b4 bf 30 77 d8 3e
       5.355538 10.957124 -1.4067703 0.42278433
000130 3f f8 ea 40 67 9a fc 40 46 c7 e3 3e 28 8f 3f 40
       7.3428035 7.893848 0.4448797 2.9931126
000140 2d a8 b5 40 3c 88 25 c0 44 ab c6 40 92 51 35 c0
       5.6767793 -2.58644 6.2084064 -2.8331037
000150 aa f2 0f 3f 65 78 f8 bf 07 0b 0b 41 ef cb 6c 3f
       0.5622965 -1.9411741 8.690192 0.9249868
000160 02 fd 98 40 04 e2 9a 40 92 80 a3 be 3b 94 10 c0
       4.7808847 4.84009 -0.3193403 -2.2590473
000170 50 48 48 c0 9d 6c 51 40 cc fd 16 41 15 d9 47 41
       -3.1294136 3.2722542 9.436962 12.490499
000180 4c 59 d3 40 2b 6f c8 3f 4a 2d d6 40 98 9b 30 c0
       6.6046505 1.5658926 6.6930285 -2.7594967
000190 2a 84 29 c1 28 99 5e 41 51 48 0f 3e 2f d5 e0 bf
       -10.594767 13.912392 0.1399243 -1.7565058
0001a0 99 60 31 bf fc dd f2 bf a4 5f f3 3f 60 e8 ac 40
       -0.6928802 -1.8973994 1.9013562 5.403366
0001b0 96 26 84 40 35 f1 b7 be 17 de ac bf 13 41 ac 3f
       4.12971 -0.35926214 -1.3505276 1.3457359
0001c0 64 79 7b bf 94 ec 91 c0 cd d7 8a 40 34 b2 a4 40
       -0.982321 -4.560129 4.338843 5.1467533
0001d0 18 2a 59 40 40 8f 1a 41 39 e0 94 3f b7 d4 18 41
       3.3931942 9.659973 1.1630927 9.551932
0001e0 c5 02 97 bb 02 e0 24 c0 b2 61 7f be d3 3f 7c 40
       -0.0046084845 -2.5761724 -0.24939612 3.9413955
0001f0 b0 af c6 bf 9e 07 c1 40 cd 72 8b 3e 90 e6 db 3e
       -1.5522366 6.03218 0.27236024 0.42949343
000200 cd ef 0b 40 ba b1 44 41 3b 4f 76 40 af 60 dc 3f
       2.1865113 12.29339 3.8485858 1.7217005
000210 48 a0 21 c0 b1 38 0e bf cd c1 d6 40 f8 a6 cf 40
       -2.5254078 -0.55555254 6.7111573 6.489132
000220 7b 88 c0 40 f5 31 ea 3d c0 6e c9 bd 93 09 45 c0
       6.01666 0.1143531 -0.09835577 -3.0787094
000230 bd 00 a5 be e5 0a c3 c0 2b 1c dd 3d 95 5b 2e c0
       -0.32227126 -6.09508 0.10796388 -2.7243397
000240 ba c8 a9 c0 c0 27 7e c0 27 a3 bc 3f e5 52 1c bf
       -5.3057528 -3.9711761 1.473729 -0.61063987
000250 fc 4e ac c0 b7 3f e6 bf 60 c2 8b bf df 98 59 40
       -5.3846416 -1.7988194 -1.0918694 3.3999555
000260 13 6e 40 c0 38 f0 3c 3e 82 58 ce c0 0e c3 35 3e
       -3.0067184 0.18451011 -6.448304 0.17750189
000270 ad fd bc 3f 9d 7e af bf 65 eb b6 c0 e8 e7 5a bf
       1.4764916 -1.3710514 -5.7162347 -0.8551011
000280 bd 23 59 40 00 21 fa bf c2 d6 01 c0 87 2a b9 40
       3.3928063 -1.9541321 -2.0287328 5.7864413
000290 3c b3 e8 40 48 38 df 3e 01 8f 42 3f a7 c1 a6 c0
       7.271879 0.43597627 0.75999457 -5.211139
0002a0 57 17 86 bf b4 2a ae bf 69 e4 82 bf 72 25 38 40
       -1.0475873 -1.3606782 -1.0225955 2.8772855
0002b0 4f 04 2b 41 1a 60 3f c1 58 80 5c 40 98 67 7f 3e
       10.688552 -11.960962 3.4453335 0.24941862
0002c0 05 2f 67 3f b7 6f b1 3f 8c 08 63 bf d4 8c 6f c0
       0.9030612 1.3862218 -0.88684916 -3.7429705
0002d0 6f 1a 32 c0 52 d1 6d 40 1a 1c 80 40 6f b0 f6 3f
       -2.7828634 3.715901 4.0034304 1.9272593
0002e0 6c 6e 39 be b8 a0 18 c0 34 ef 66 c0 c6 ec ae c0
       -0.18108529 -2.3848095 -3.6083498 -5.466403
0002f0 f8 27 0e 3f 2f 01 ba c0 ee 17 11 41 5e 0b 2c c0
       0.5552974 -5.8126445 9.068342 -2.6881938
000300 81 7c dc 3f 56 f8 46 c0 66 57 ec 3f 30 9e 63 40
       1.7225496 -3.1089072 1.8464172 3.55653
000310 7b 3d af bf 0e 21 16 c0 6f d6 15 3f ed 68 b9 3c
       -1.3690637 -2.3457675 0.58530325 0.02263304
000320 67 56 3b c0 f7 20 20 c1 70 7e 85 3f 8b d9 1e 40
       -2.9271486 -10.008048 1.0429211 2.4820278
000330 8f 2d 91 3e 54 af 62 bf 31 00 41 bf 0c 7a 46 c0
       0.2835507 -0.8854878 -0.7539092 -3.1011992
000340 fd 4a 5b c0 b7 bf 9b 40 77 d0 26 be 33 29 df bf
       -3.426452 4.8671527 -0.1629046 -1.7434448
000350 38 1e 29 bf 7e 34 8b 40 b9 06 1d 3f 60 dd 3d bf
       -0.66061735 4.3501577 0.6133838 -0.74165916
000360 c6 01 b5 c0 07 51 80 c0 57 2d 0a 3f ab 3e d9 bd
       -5.6564665 -4.009891 0.53975433 -0.10607656
000370 69 66 e5 c0 75 b6 87 c0 37 9d e3 be 45 07 fe c0
       -7.1687512 -4.2410226 -0.44455883 -7.9383874
000380 f1 79 b8 bf d9 9b 4e 40 75 0f 3f c0 eb 6f d2 3e
       -1.4412214 3.2282622 -2.9853184 0.41101012
000390 a4 8a 18 be 2e 9c 1a 40 20 d8 c7 c0 96 85 78 bc
       -0.14896637 2.4157825 -6.2451324 -0.015168568
0003a0 00 f2 c2 c0 f4 d8 c5 c0 82 ee 22 40 33 bf 92 3e
       -6.092041 -6.1827335 2.5458074 0.28661498
0003b0 35 32 af 3f ba 88 d0 bf 37 8c 2a c1 ee f8 63 c0
       1.3687197 -1.6291726 -10.659232 -3.5620685
0003c0 e2 0d 08 c1 86 2f 1d c0 0e 0b 9c c0 8b 9d cd 40
       -8.503389 -2.4560256 -4.8763494 6.4254813
0003d0 96 9f 90 40 60 f0 7a c0 0b 78 3c 3f 39 23 60 bf
       4.5194807 -3.9209213 0.7362067 -0.87553746
0003e0 c6 9c c0 3f 2d 7c 41 40 cd 76 fb bf 66 b6 b8 c0
       1.5047843 3.023204 -1.964563 -5.7722654
0003f0 fd f7 29 be 76 46 96 40 30 4a c6 3f 7d 71 1e 3e
       -0.16598506 4.696101 1.549139 0.1547298

weight f4 [24, 576]
000000 6c da 8a 3f c1 49 bc 3e 42 07 a2 c0 e8 04 e1 3d
       1.0847907 0.3677502 -5.063386 0.10987264
000010 9e b1 c8 bc 1d a4 1f bf 7c 2b 76 3d 05 96 87 bf
       -0.024498757 -0.6235979 0.060100064 -1.0592657
000020 a9 62 d8 be 43 53 72 c0 da 13 c0 40 a5 00 80 40
       -0.42262772 -3.786332 6.0024233 4.0000787
000030 1b 44 06 c0 21 9c 49 c0 0f 8b a3 40 fd 61 3b c0
       -2.0979068 -3.1501544 5.110725 -2.9278557
000040 85 a7 f9 40 ef a4 98 40 1e a6 96 3f 19 33 1b bd
       7.801699 4.7701335 1.1769445 -0.037890527
000050 00 91 1f bf 7a 8b 60 40 31 9e c5 be 11 14 f4 3f
       -0.6233063 3.508513 -0.38597253 1.9068624
000060 e3 e3 e7 bf 3c c4 d2 bf a5 88 c6 bf 1c 43 8c c0
       -1.811642 -1.6466136 -1.5510451 -4.383192
000070 87 8d b1 40 36 6a 97 3e f2 d1 54 bf da af 95 40
       5.5485263 0.2957322 -0.8313285 4.6777163
000080 1b b5 a0 c0 4a b6 e2 be bb 1e 49 3f 11 36 ec 3e
       -5.0221076 -0.442797 0.78562516 0.46135
000090 c6 38 98 40 70 ab b3 40 cf 14 38 c0 41 04 7f c1
       4.7569304 5.6146774 -2.87627 -15.938539
0000a0 83 cb 47 c0 36 13 1d 41 70 27 23 41 0b 4b 42 3f
       -3.1217964 9.81719 10.197128 0.75895756
0000b0 f9 75 10 41 07 d8 86 bf ca d2 22 c1 ac b0 f2 bf
       9.028802 -1.0534676 -10.176462 -1.8960166
0000c0 d8 47 15 c1 18 9b ab bd 80 88 ae be 3e 3c b2 3f
       -9.33004 -0.08379191 -0.34088516 1.3924634
0000d0 ec cd b9 c0 38 d6 8d c0 cf be fa bf 8f 22 4e 41
       -5.806387 -4.4323997 -1.958948 12.883437
0000e0 cf 9c 86 c1 9e 62 52 bf 09 c6 ff c1 72 a0 0f c1
       -16.826567 -0.8218173 -31.971697 -8.976671
0000f0 22 eb a4 3f b3 b5 18 41 8e 1e 01 c2 c5 e6 dc 40
       1.2884257 9.54436 -32.27984 6.90317
000100 48 74 02 40 58 65 3d 40 6f 5a 52 c0 25 64 bb c1
       2.0383472 2.9593105 -3.2867696 -23.423899
000110 e4 8b d7 40 d3 b5 6a 3f 90 a6 ee 3f e8 24 a5 40
       6.7358265 0.9168369 1.8644581 5.160755
000120 7e b8 c6 bd db 19 f8 bf 71 28 2e be 30 46 96 be
       -0.09703158 -1.938289 -0.17007615 -0.29350424
000130 5e c8 75 bd c4 e8 8c 3e b7 74 72 c0 6a 54 bc bd
       -0.06000554 0.27521336 -3.7883737 -0.09195788
000140 e8 ce ff 3d 55 2f 27 c0 2e 11 f4 3f 0b db 93 c0
       0.12490636 -2.612264 1.9067743 -4.6204886
000150 3c 9d 0a bf ba 20 4f 40 9c 4f cd bf 06 af b9 3f
       -0.5414617 3.2363725 -1.603992 1.4506538
000160 b0 47 49 c0 b6 50 5b c0 f0 ee b3 3e df ea e8 3f
       -3.1450005 -3.4268012 0.35143232 1.8196677
000170 ca ed b3 3f c6 2d 4c bf 24 c7 db 3f 70 a1 8b 3e
       1.4056942 -0.79757345 1.7170148 0.27271605
000180 7d 7d 0f be 77 18 87 be 1f 74 6e 3f 8e 8b bb bd
       -0.14012714 -0.26385853 0.93145937 -0.09157477
000190 82 fa 6b be 78 fd 1f bf 88 ab b7 bf bc 80 26 c0
       -0.2304478 -0.6249614 -1.4349222 -2.6016073
0001a0 35 61 9c 40 0a eb 47 bd 03 4e c9 3f 5d 87 12 c0
       4.886866 -0.048808135 1.5726932 -2.289512
0001b0 61 ba 9d 41 04 ea b1 c0 22 df bb 40 f4 96 7e 3e
       19.716005 -5.5598164 5.870988 0.24862272
0001c0 8c 07 da c1 b4 d6 a0 c0 b9 8d e5 be 60 ff 93 c0
       -27.253685 -5.026209 -0.44834688 -4.6249237
0001d0 38 a8 80 41 ec 95 61 40 8a b1 80 be bb 8b 3f c0
       16.082138 3.5247755 -0.25135452 -2.9929035
0001e0 60 eb 06 be 08 f1 03 3f 22 08 08 41 e6 1c d1 bb
       -0.13175726 0.5153966 8.501986 -0.006381619
0001f0 0c 0f 65 3f 62 63 2c 41 71 2f 3d 3f c7 db b4 c0
       0.89476085 10.774263 0.73900515 -5.6518283
000200 de d8 08 40 11 0c 14 3f 2b 8a 22 c1 6b 6c cb 40
       2.1382365 0.5783091 -10.158732 6.3569846
000210 d1 e2 15 c1 a1 bc 5b 40 4d 24 77 40 46 32 dc 3f
       -9.367875 3.433388 3.8615906 1.7202842
000220 d9 92 12 c1 9b 2a 8c 41 38 5e 46 3f b4 b3 95 c0
       -9.1608515 17.520803 0.77487516 -4.6781864
000230 78 9e 73 be 54 4f 27 c0 47 1a b8 c0 7d c6 16 3f
       -0.2379092 -2.6142168 -5.7532077 0.5889662
000240 ab 7b 12 bf 2d 24 a2 3e 8b 35 1e 3f c2 89 1a 3e
       -0.5721995 0.31668225 0.6180045 0.15091613
000250 cb f5 1a bd 50 74 69 be 09 fd 01 bf e5 af a9 3f
       -0.037832063 -0.22798276 -0.50776726 1.3256804
000260 97 fe 1e be 0e 37 14 40 81 f5 48 be 81 1c 00 40
       -0.15526806 2.3158603 -0.19624902 2.0017397
000270 f0 d4 96 be 10 a1 54 bf 46 7d 04 40 de ac 07 bf
       -0.29459333 -0.8305826 2.070146 -0.5299815
000280 72 d2 2a bf 16 ca fa 3e d3 aa 2c 40 99 d3 13 c0
       -0.66727364 0.48982304 2.6979263 -2.30979
000290 24 c2 5f 40 14 d6 b9 bf fc 9d fd c0 a5 d3 2f 40
       3.4962244 -1.4518456 -7.925535 2.7472928
0002a0 82 f1 78 bc 61 a1 2f 3f 35 fe 25 40 2b 79 fb 3f
       -0.015194299 0.6860562 2.5936406 1.9646353
0002b0 39 21 81 c0 e4 4f 63 be 84 5e 82 bf 25 e2 c3 c0
       -4.0353055 -0.22198445 -1.0185094 -6.1213555
0002c0 68 fc 25 40 f7 7d 07 c0 af f8 bb 3f 26 b0 b2 40
       2.5935307 -2.1170633 1.4685267 5.5840025
0002d0 09 66 c3 40 c3 78 8b c1 6d 8f 87 c0 4f a6 1b c1
       6.1062055 -17.433966 -4.236258 -9.728103
0002e0 68 81 6c 41 8c fa 52 41 12 30 31 c0 d9 4b d4 be
       14.781593 13.186169 -2.768559 -0.41464117
0002f0 f7 32 01 c0 60 46 0b c0 f6 2b 0c c0 be 05 3e c0
       -2.0187356 -2.1761703 -2.1901832 -2.9691005
000300 45 0a 3d 40 67 08 56 c0 47 00 8e 40 a8 20 86 3e
       2.9537518 -3.3442628 4.437534 0.2619679
000310 0a 51 74 3e fd 1c 22 c0 b9 ad 24 c1 98 e3 9a c0
       0.23859039 -2.5330193 -10.292413 -4.8402824
000320 44 01 28 3f 87 c0 e3 3f 89 f0 73 41 84 9b 17 c1
       0.6562693 1.779313 15.246224 -9.475468
000330 60 9a 8a bf 2c a6 24 c0 b3 15 b0 c0 12 46 73 c0
       -1.0828362 -2.5726423 -5.502649 -3.8011518
000340 0e 04 54 40 87 8c f5 3f 7e 38 a9 be 64 34 39 c1
       3.3127475 1.918351 -0.33050913 -11.575291
000350 de 83 da 40 e5 3b 9a 40 8a 8e 51 bf 81 07 df 40
       6.828597 4.8198113 -0.8185812 6.969666
000360 b5 95 0a 40 5c cb 9e bf b9 9a 9d 3e 62 9e b2 3e
       2.1653874 -1.240581 0.30782107 0.34886461
000370 1f c9 52 3e 1a 1b bb be 5e af a7 bf 6c 78 78 c0
       0.20584534 -0.36544114 -1.3100393 -3.88235
000380 f5 bb 22 3e d1 f0 f0 3e aa dc f6 bf f4 2e 24 c0
       0.15892012 0.47058728 -1.9286091 -2.5653658
000390 ac fa 86 3f f0 19 4e 3d 27 ab 0b 40 7d 39 59 3f
       1.0545249 0.050317705 2.1823213 0.84853345
0003a0 eb 1f c6 3f a1 04 61 3f a8 47 97 3e a1 95 2d 40
       1.547849 0.8789769 0.29546857 2.7122576
0003b0 1c 09 a9 40 80 d4 5c bb ad 0b d2 40 a7 ae 0c c0
       5.282362 -0.0033695996 6.5639253 -2.19816
0003c0 58 50 26 c0 60 3b 25 c0 18 6e 0a 40 4e 87 40 3e
       -2.5986538 -2.581749 2.1629696 0.18801615
0003d0 50 4e 43 c0 33 c7 09 41 7b 94 10 c0 7d 57 4e c0
       -3.0516548 8.611133 -2.2590625 -3.2240899
0003e0 63 4d 2e bf 7a 9a 27 3f d5 83 03 40 18 e9 4b c0
       -0.6808683 0.6547009 2.0549214 -3.186102
0003f0 4f 2f 22 41 7d 9f 93 c0 f3 29 e4 40 0d 0a f8 bf
       10.13655 -4.613219 7.1301208 -1.9378067

bias f4 [24]
000000 fd 7d f1 bd e6 5e 45 bf bf d6 4d 3e f1 ea 86 bd
       -0.117916085 -0.7709793 0.2010145 -0.0658778
000010 6c 33 84 3f 43 91 ef bc 25 01 8c 3f 5e a6 e1 3e
       1.0328193 -0.02924407 1.0937849 0.4407224
000020 cb 09 80 3e 52 54 f7 be 4e 1f 0b bf bc 0a 08 bf
       0.2500747 -0.4830652 -0.5434464 -0.5314138
000030 b5 ed 06 be 36 8f 58 3e 43 a0 ea be bd cb 2f bf
       -0.13176616 0.2114838 -0.45825395 -0.68670255
000040 f5 a3 86 3d 1b 96 82 bf 5f ec 02 bf 5d d4 f1 bc
       0.06574241 -1.0202059 -0.51141924 -0.029520208
000050 19 5f 32 3f 6a dd 6c 3f 0e a6 65 bf 2f 92 40 be
       0.6967636 0.9252535 -0.89706504 -0.18805765

weight f4 [12, 24]
000000 64 d5 50 3e 50 18 ae be 27 9d 54 bd 78 96 bd be
       0.20393902 -0.34002924 -0.051907685 -0.3702886
000010 c9 d9 1c 3e d3 d1 f0 bd 8a 65 1f be fb 19 38 bf
       0.15317453 -0.11758771 -0.15566078 -0.71914643
000020 fa c1 9a be 32 c5 05 bf 58 0f 5a 3c 71 67 e7 3b
       -0.30226117 -0.5225402 0.013309322 0.0070618917
000030 04 1b 42 3f 7e 61 92 be 71 0b a5 bd 60 70 01 be
       0.7582247 -0.28590006 -0.08058823 -0.12640524
000040 26 7c 13 bf a7 07 54 3f 35 ae f6 c0 93 89 9e bd
       -0.5761131 0.82824177 -7.7087655 -0.07741084
000050 30 ac 21 3f e8 0c 89 3e e0 c1 f9 3e f9 6f 92 3e
       0.6315336 0.2676766 0.48780727 0.28601053
000060 6f 18 16 3f 39 ee 7d 3e 24 16 8a bf 6f 2e d2 3e
       0.5863103 0.24797906 -1.0788007 0.4105105
000070 02 92 2b bf 19 8e ed 3c 77 df db 3f 77 8b a6 bf
       -0.67019665 0.028998422 1.7177571 -1.3011311
000080 ce d9 86 3f ac 69 68 40 f5 f9 3b c0 aa 3b c4 3d
       1.0535219 3.6314497 -2.9371312 0.095816925
000090 ec d0 81 bd cf 48 b1 be 3d 88 0d be c1 15 a1 3d
       -0.06338677 -0.3462586 -0.13821502 0.07865477
0000a0 ca 5e c7 bf f1 1d 52 c0 fd de 07 3e c1 2f f0 3e
       -1.5575802 -3.2830775 0.13268657 0.46911433
0000b0 04 25 7a 3f e9 66 1e 40 77 7d 81 bf 41 10 93 3e
       0.9771273 2.4750311 -1.0116414 0.28723338
0000c0 b0 3e 2c 3e aa 49 7f bd b8 17 36 c0 29 b7 8f be
       0.16820788 -0.06232611 -2.8451977 -0.28069428
0000d0 f3 84 82 3f 13 b4 5d bf 10 88 7a 40 2e 04 34 c0
       1.0196823 -0.86602896 3.9145546 -2.812755
0000e0 55 54 2c 40 60 89 c9 3e 82 9e 40 3f 79 1f 62 3c
       2.6926472 0.3936262 0.75241864 0.013801449
0000f0 91 34 7b bf b8 2e 8b 3e b9 fa ad bf 5f 06 96 bf
       -0.98127085 0.2718408 -1.359214 -1.1720694
000100 3a 59 99 3f ac 56 cb 3f a0 d0 b9 bd bd eb 88 bf
       1.1980355 1.5885825 -0.09072995 -1.0696942
000110 e1 f3 3f 3e 02 2c 28 bf 8e 07 c9 3e 34 77 e1 be
       0.18745376 -0.6569215 0.39263576 -0.44036257
000120 73 7a 12 bd a3 5a 50 3f c1 26 f5 be 28 38 3a bf
       -0.035761308 0.813883 -0.4788113 -0.7274194
000130 5a 3d a4 bf c6 e9 a2 bf 47 eb d9 3f f1 5d d2 3f
       -1.2831223 -1.2727592 1.7024926 1.6434919
000140 d9 bc 34 bf d4 7a 8c 40 7c 41 40 c0 e6 d7 9c be
       -0.7060066 4.3899937 -3.0039968 -0.30633467
000150 f6 55 85 c0 c1 3d cb 3f e3 bb 3a 3f 93 ac 07 3f
       -4.1667433 1.5878221 0.7294294 0.529977
000160 bd a5 14 bf a2 8a 92 be d5 31 8b be be 09 55 3f
       -0.58065397 -0.28621393 -0.27186456 0.8321799
000170 c6 13 b2 bf 53 dc e1 3f a3 7e b5 3f 94 61 2d 3f
       -1.3912284 1.7645363 1.4179271 0.6772702
000180 b1 31 9c 38 ae 77 31 37 0c 21 60 39 cf 35 33 b7
       7.4479154e-05 1.0577887e-05 0.00021374616 -1.068176e-05
000190 07 a8 a9 b8 f4 44 90 37 90 f8 09 b9 a1 52 cf b6
       -8.0898455e-05 1.7198246e-05 -0.00013157935 -6.1787e-06
0001a0 03 a6 48 b8 be 34 f2 37 47 a6 51 36 d4 43 1a 36
       -4.7838326e-05 2.8873208e-05 3.1240213e-06 2.298727e-06
0001b0 84 38 ed b8 80 bb 89 b8 54 c2 48 37 14 6b b6 b7
       -0.000113115675 -6.567594e-05 1.19661745e-05 -2.1745953e-05
0001c0 60 b1 5c 36 f9 3d b5 38 48 e4 9e b7 7f a9 19 b8
       3.28858e-06 8.642296e-05 -1.894137e-05 -3.6635898e-05
0001d0 ad 23 47 b9 36 55 8b 39 18 23 bc b7 9d b8 54 b6
       -0.00018991409 0.00026575633 -2.2427688e-05 -3.169792e-06
0001e0 b3 f6 45 3d b5 aa 85 bf a5 22 72 c0 72 ac 6c 3e
       0.048330974 -1.0442721 -3.7833645 0.23112658
0001f0 ce e6 58 3f 38 f3 49 3e be 51 b6 3f 9d 54 d4 3e
       0.8472718 0.19721687 1.4243696 0.41470805
000200 64 08 3c bf 0d b5 04 c0 0d 2a a7 3f 88 1a 07 3e
       -0.73450303 -2.0735505 1.3059708 0.13193715
000210 97 2c d0 3f 65 ad b8 bf 5e 00 0c c0 54 0f 44 bf
       1.6263608 -1.4427916 -2.1875224 -0.7658589
000220 c0 64 9e 3f bb 66 96 c0 56 8e 38 3e f1 46 1c c0
       1.2374496 -4.7000403 0.18023047 -2.44183
000230 4d 6a 39 40 a4 78 4d c0 8b 87 91 bf 55 9c 1a bf
       2.897113 -3.2104883 -1.136949 -0.60394794
000240 f0 c4 3f 3f c3 8e 4d c0 3f 76 dd bf 90 10 94 bf
       0.7490988 -3.2118385 -1.7301711 -1.1567554
000250 08 98 8c 3f 57 bc 19 c0 84 68 83 3f e4 31 76 c0
       1.0983896 -2.4021204 1.0266271 -3.846795
000260 28 c8 72 3e c6 a9 23 be 22 1d e5 bf 61 b7 13 3e
       0.23709166 -0.15982732 -1.7899516 0.14425422
000270 e5 9c 76 c0 c8 27 92 be 70 42 c2 bf b9 88 1d c0
       -3.853326 -0.28545976 -1.5176525 -2.46147
000280 90 2f 46 3f 40 63 40 3f 2d c0 8d 3d bd ec 39 bf
       0.77416325 0.75151443 0.0692142 -0.7262686
000290 ec d1 56 b6 ba b9 0f 40 cd a8 83 be af 86 1a 3f
       -3.2010676e-06 2.2457108 -0.25714722 0.6036176
0002a0 ee ee 82 3f 83 ee 89 3d 79 d3 49 3f f8 dc 2b bf
       1.0229166 0.067349456 0.78838307 -0.67134047
0002b0 60 31 99 bf 06 af a0 3f d5 7a e4 be 7a d8 a4 3f
       -1.1968193 1.2553413 -0.44624963 1.2878563
0002c0 84 55 ae bf 70 87 ae bf be f3 7b 3f 42 9f c9 be
       -1.3619847 -1.3635082 0.98418796 -0.39379317
0002d0 90 d1 9e 3f eb b2 99 bf ed f0 1d 3e 52 43 1e 3f
       1.2407703 -1.2007726 0.15423937 0.6182147
0002e0 29 43 64 3f c7 35 1a c0 a0 8c 41 bf cf 19 94 bf
       0.8916498 -2.4095323 -0.756052 -1.1570376
0002f0 b3 91 40 bf 53 24 c0 bf e3 40 4e bf 98 41 4d bf
       -0.7522232 -1.5011085 -0.8056776 -0.80178213
000300 e5 02 8c 3f 7e 27 44 3f f3 32 4f bf 54 ae 1e 3f
       1.0938383 0.7662276 -0.8093712 0.61984754
000310 de 2e 40 bf f8 ed 35 3f b6 de 61 40 f4 af 88 3e
       -0.75071514 0.71066236 3.5292182 0.26696742
000320 59 cf 8f bf 14 47 a4 3e dc 58 8c 3f 70 26 24 be
       -1.1235152 0.32085478 1.0964618 -0.16030288
000330 cf cb 15 40 c4 48 47 be 3d 28 aa 3e 0f ce 84 3f
       2.3405645 -0.19461352 0.33233824 1.0375384
000340 8e 4e 27 3f 1d be a8 be 4a ac 65 be 2d 80 84 3f
       0.6535424 -0.32957545 -0.22429004 1.0351616
000350 a9 aa a0 3f bb 1c cf bf 69 f3 ee 3e e0 e7 5d bf
       1.2552081 -1.6180643 0.46670082 -0.8668194
000360 e9 ff 22 3f a2 0e 87 be 5e c0 4a 3f ae eb e8 3e
       0.6367174 -0.2637835 0.7919978 0.4549231
000370 38 56 a6 3e 19 32 8a 3f 84 a1 14 bf d5 b4 e7 3e
       0.32487655 1.0796539 -0.58058953 0.4525515
000380 60 8f 1b 3f 57 b3 a5 3f 2b 6c fb be 4e 18 a3 3f
       0.6076565 1.2945355 -0.49105963 1.2741792
000390 49 0b 87 bd a3 4a 7b 3f 2f 3b c8 3e c8 23 e3 bf
       -0.06593949 0.9816076 0.39107653 -1.7745295
0003a0 6b a5 75 be bd b0 83 3f 38 67 61 bf 0b 2f 69 3e
       -0.23988883 1.0288311 -0.88048124 0.22771852
0003b0 9b a3 2f be 4b 28 fe bf bd e8 af 3f 8d ca 2e bf
       -0.17152254 -1.9856046 1.3742901 -0.6827782
0003c0 3c 9a 33 3f 33 d2 80 bf 08 4a bb bf 89 f3 90 3f
       0.7015722 -1.0064148 -1.4631968 1.1324321
0003d0 7a a0 34 40 c5 bc fd bf 02 3c cc 3e 17 a5 d1 3d
       2.8222947 -1.9823233 0.39889532 0.102365665
0003e0 13 69 9b 3f 88 a4 ae be f3 2a 0d c0 09 a1 53 be
       1.2141441 -0.34109902 -2.2057464 -0.20666899
0003f0 1e bc cb be 4f c0 7e 3d 0b d5 05 bf 63 91 d1 bf
       -0.3979196 0.06219512 -0.522782 -1.6372494

bias f4 [12]
000000 bb f0 33 c0 c2 f2 d5 bf b5 6b d2 bf 07 25 0a c0
       -2.811568 -1.6714709 -1.643912 -2.15851
000010 36 f9 1f bf b4 af 57 c0 47 49 56 c0 4d 2d ca 3e
       -0.6248964 -3.370099 -3.3482225 0.39487687
000020 11 94 2e be 26 39 8a bf ab a6 9c bf f1 ae a3 bf
       -0.1704867 -1.079869 -1.2238363 -1.2787763

weight f4 [1, 12]
000000 8b 3b a0 bd ed fd 7a 3e 5f b1 e0 3e d3 db 24 be
       -0.07823857 0.24510927 0.43885323 -0.16099481
000010 9f 6d 97 b6 d4 bc ae be 66 0f 9b 3e c1 e8 6e be
       -4.5129123e-06 -0.3412844 0.30285186 -0.23330976
000020 bb 84 52 3e b7 af 4f be e9 63 cb 3e 4d 27 51 be
       0.20558445 -0.20281874 0.39724663 -0.20425148

weight f4 [1, 576]
000000 bd 26 d2 bf 92 84 87 3e eb a6 25 3e 02 c9 14 3b
       -1.6418072 0.2646833 0.16176955 0.0022702818
000010 a3 b0 da bc 64 97 63 3c d7 65 97 3c 49 74 32 be
       -0.026695555 0.013891075 0.018481178 -0.17427172
000020 0b 3e b3 bc 56 d1 15 bf 55 a8 d4 be a3 07 a6 3e
       -0.02188017 -0.58522546 -0.41534677 0.324277
000030 9f 25 04 3e d4 93 a6 3e 24 ee 99 bd 31 8e b2 3e
       0.12904976 0.3253466 -0.07516125 0.34874108
000040 5c 16 8d 3d 84 03 d2 3e 7a 75 6f 3f 9e e7 0d be
       0.0688903 0.41018307 0.9353863 -0.13857886
000050 91 10 d1 3d fe bd 0f 3e f8 26 7a bd 54 e5 08 be
       0.10208238 0.1403732 -0.06107232 -0.13368732
000060 9e c4 23 3e 44 2a 97 be e4 1b 88 3e 78 92 7d 3f
       0.15992972 -0.29524434 0.2658378 0.9905162
000070 f2 f2 de be e7 e0 67 3d 4e e7 19 3f ee 72 39 bf
       -0.43544728 0.056610968 0.6011857 -0.72440994
000080 a8 34 29 3f 34 94 c6 bc 0d f1 10 bf 4d 36 96 3c
       0.6609597 -0.02424059 -0.56617814 0.01833644
000090 87 37 26 3f 3c b3 26 bf 6a eb d0 bf 2f b9 07 be
       0.6492848 -0.6511724 -1.6321843 -0.13254236
0000a0 58 26 13 c0 b1 96 01 bf 26 55 b3 3f 04 ba bf bf
       -2.2992153 -0.5062056 1.401036 -1.4978642
0000b0 77 d9 be bf 04 5f 72 bf b7 16 09 be 37 22 3a 3f
       -1.4910115 -0.9467623 -0.13387571 0.7270846
0000c0 45 ef fe bf bc d5 b6 bd b5 c2 59 3e c6 88 57 bf
       -1.9916769 -0.08927485 0.21265681 -0.84193075
0000d0 55 c6 74 be f4 d3 8d bf a2 75 dd bd 1d 9d 6f bf
       -0.23903783 -1.1080308 -0.10813452 -0.9359911
0000e0 47 91 dc 3f 7b 2a 78 bf 49 d1 9b 3f 32 e7 5a 40
       1.7231835 -0.9693982 1.2173244 3.420361
0000f0 01 b2 e1 3e 36 6b 3c c0 56 9a 82 3f ea 51 92 c0
       0.4408112 -2.9440436 1.020335 -4.5724993
000100 2c e0 4a c0 94 8e 15 40 ca 24 99 3f e6 27 52 40
       -3.1699324 2.3368273 1.1964352 3.2836852
000110 5e bc 44 40 fb 1a 48 3f 14 c4 83 be ee 46 85 bd
       3.073997 0.7816617 -0.25735533 -0.065076694
000120 01 a0 18 bc 7f ae af 3c 48 b1 48 3b 23 01 83 39
       -0.009315492 0.02144551 0.0030623246 0.00024987114
000130 5c 98 00 bd 1f cb f7 bb 89 a7 3c be 2d 63 d5 bd
       -0.0313953 -0.0075620557 -0.18423285 -0.10419307
000140 97 15 cd 3b a6 ec 95 3d a0 f7 43 3e 6f ce 66 3d
       0.006258677 0.07320528 0.1913743 0.056349214
000150 bf 04 86 3c 65 fa 91 bd 69 c9 b8 3c 9f 2a 90 be
       0.016359685 -0.07127837 0.022556977 -0.28157517
000160 84 05 a3 3d 8a ba eb 3e e9 d9 4d 3e 3f 75 1a 3f
       0.079600364 0.46040756 0.20102657 0.60335153
000170 af c5 ad be 7c e1 9d 3d a3 cc e1 3c e9 67 d7 3b
       -0.33939883 0.07709023 0.027563399 0.0065736664
000180 20 d6 9f bd 84 f8 d6 bd 81 71 a9 3d 26 61 f1 3d
       -0.07804513 -0.10496619 0.08273602 0.11786108
000190 86 ad 6c 3e b3 2e 58 3d e2 8c f2 bc 0a 4f d5 3d
       0.23113069 0.05277891 -0.029608194 0.10415466
0001a0 e0 2f 5e be 1e 70 e2 3e a1 e1 dd be 06 3f f9 3e
       -0.2169795 0.44226164 -0.43336204 0.48680896
0001b0 6c 2e 95 bf dd 9c d8 bf ba 57 2e bf ec cb 16 bf
       -1.1654792 -1.6922871 -0.6810261 -0.5890491
0001c0 bd 0c 0f 3f e0 8b 2b c0 db d8 b8 3f 4d 29 e6 3f
       0.5587881 -2.6804123 1.4441179 1.7981354
0001d0 fd aa 19 c0 e4 fd ea be 89 f4 ce bf 22 5d 7e 3f
       -2.4010613 -0.45896828 -1.6168376 0.9936086
0001e0 3e 52 3a be bf 4f 91 bf 85 a1 1d be cc 62 d5 3e
       -0.18195435 -1.1352462 -0.15393646 0.4167694
0001f0 31 96 d4 be 0b e6 c5 be 74 91 7f c0 ea 36 6e 3f
       -0.41520837 -0.3865207 -3.9932528 0.9305254
000200 9c 20 b2 3f 0b ab 07 bf 7b f1 67 be 4e 85 28 3f
       1.3916202 -0.52995366 -0.22650711 0.65828407
000210 64 f7 a6 bf 93 85 bf 3f 77 bf 8a c0 38 61 9d bf
       -1.3044248 1.4962639 -4.335872 -1.2295294
000220 e8 fd 46 c0 64 89 00 40 1f 0c 8b bd 8a d5 5a 3e
       -3.1092472 2.0083857 -0.06789421 0.21370521
000230 60 c2 90 be 92 2f a8 3b 85 28 de 3f 41 42 1c bf
       -0.28273296 0.005132624 1.7356116 -0.61038595
000240 25 40 a3 bc fa ca d8 3c 0f 1b fe b8 5f ce a7 bb
       -0.019928047 0.026463974 -0.00012116704 -0.005121037
000250 2b d0 e7 bc 1e de 3e 3b d8 ee f4 bd 63 48 67 3e
       -0.028297504 0.0029124091 -0.11959618 0.22586207
000260 f4 de 2b bc 83 69 6b 3e e4 5e 3b 3e aa 92 70 3f
       -0.010490168 0.22989468 0.18297917 0.9397379
000270 8e 72 3d be 37 32 3c 3e 8d f2 1e 3d 0c cb f2 3d
       -0.1850073 0.1837853 0.038805533 0.11855134
000280 88 22 eb 3d 59 bc 96 bd 3c cf 7f 3f bf cd 8a bd
       0.11481196 -0.07360143 0.9992559 -0.06777524
000290 72 de 4f 3f b1 0b 06 bf dd 0d 13 3f 6b 0f 22 be
       0.811988 -0.5236159 0.5744303 -0.15826194
0002a0 fb c8 fa 3e a2 c3 cb 3d b7 1a dd 3c 70 40 6c 3f
       0.4898146 0.099494234 0.026990278 0.92285824
0002b0 08 cd f1 3d 31 e5 22 be 19 69 08 be 2e a4 27 be
       0.11806685 -0.15907742 -0.13321342 -0.16371223
0002c0 95 83 1e 3e 35 d6 c1 be 3b cc 9b bd 54 7a 85 be
       0.15479882 -0.3785874 -0.07607313 -0.2606989
0002d0 2f 35 26 bf d5 fe fc 3e 42 b9 04 be c6 9f 80 3f
       -0.649249 0.4941317 -0.12961295 1.0048759
0002e0 de 20 b0 3f 98 22 20 3e 63 ec ab be 40 d8 a4 be
       1.376003 0.15638196 -0.33578786 -0.32196236
0002f0 36 cf 1d 3f 4d b2 e8 be 1f 96 01 bf 20 d4 59 bf
       0.61644304 -0.45448533 -0.5061969 -0.850893
000300 9d bd 6a 3f b4 87 50 bf 7b a6 5b be cc 6b 92 be
       0.91695577 -0.81457067 -0.21450226 -0.28597867
000310 02 58 10 be 7e 5e 97 be ed 9a c6 c0 71 60 9e bf
       -0.14096072 -0.2956428 -6.206412 -1.2373182
000320 63 77 38 c0 a1 aa 2a 3f 6a 0b e2 bf 41 81 9c be
       -2.8822868 0.6666661 -1.7659733 -0.30567363
000330 31 6e 3a bf b4 4f 3c be 6e 2d 19 c0 d2 30 e2 be
       -0.7282439 -0.1838978 -2.3933978 -0.44177872
000340 fc 4b fc bf d7 89 dd 3e 86 17 92 be 86 aa 4f be
       -1.9710689 0.43269226 -0.28533572 -0.20279893
000350 96 cd 8c be 97 88 a4 3e d3 0f 06 be 0b ec ad be
       -0.275006 0.3213546 -0.13091974 -0.3396915
000360 7b 9b 98 3d c0 7d 11 be 64 e6 83 bc c1 49 8a bb
       0.074515305 -0.14208126 -0.01610107 -0.004220218
000370 de b1 f8 3c 9a 87 c0 3d 58 97 48 3d b0 c3 8e 3e
       0.030358251 0.09400864 0.048972458 0.27883673
000380 87 cd 0c 3b 0a a9 b3 bd 6b ec bc 3d e2 d0 0a bf
       0.0021484809 -0.08772476 0.09224781 -0.5422498
000390 84 17 27 3e e0 75 28 3d 2d f8 91 be 7d f6 ef 3b
       0.16317564 0.04112804 -0.28509656 0.007323085
0003a0 f3 86 91 3e 60 2f 28 3e 61 15 9a 3d 8f 18 f8 3e
       0.2842327 0.16424322 0.07523609 0.48456237
0003b0 8e 46 31 bf 17 31 3e 3f ec 99 5a bf 2b cd 77 be
       -0.6924828 0.74293655 -0.85391116 -0.24199359
0003c0 91 6b 41 bf 39 f7 48 3e 66 71 32 3d 29 75 79 3e
       -0.7555476 0.19625558 0.043565176 0.243611
0003d0 6f 73 2f 3e 14 97 92 3f 6e c0 1c be 32 c1 d5 3d
       0.17133878 1.1452355 -0.15307781 0.1043724
0003e0 fb 9c ab bd 12 da 7d be 20 ec 8d 3d 81 f1 19 be
       -0.08379551 -0.24790218 0.06929803 -0.15033533
0003f0 af 86 7d bf 63 42 0b c0 16 bf 0d 40 04 aa 89 bf
       -0.99033636 -2.175927 2.214788 -1.075501
